{"format": "graph-model", "generatedBy": "2.10.1", "convertedBy": "TensorFlow.js Converter v3.19.0", "signature": {"inputs": {"target_domain": {"name": "target_domain:0", "dtype": "DT_FLOAT", "tensorShape": {"dim": [{"size": "-1"}, {"size": "1"}]}}, "source_images": {"name": "source_images:0", "dtype": "DT_FLOAT", "tensorShape": {"dim": [{"size": "-1"}, {"size": "4"}, {"size": "64"}, {"size": "64"}, {"size": "4"}]}}}, "outputs": {"conv2d_159": {"name": "Identity:0", "dtype": "DT_FLOAT", "tensorShape": {"dim": [{"size": "-1"}, {"size": "64"}, {"size": "64"}, {"size": "4"}]}}}}, "modelTopology": {"node": [{"name": "StatefulPartitionedCall/CollaGANAffluentGenerator/instance_normalization_41/Reshape_1", "op": "Const", "attr": {"dtype": {"type": "DT_FLOAT"}, "value": {"tensor": {"dtype": "DT_FLOAT", "tensorShape": {"dim": [{"size": "1"}, {"size": "1"}, {"size": "1"}, {"size": "64"}]}}}}}, {"name": "StatefulPartitionedCall/CollaGANAffluentGenerator/instance_normalization_40/Reshape_1", "op": "Const", "attr": {"dtype": {"type": "DT_FLOAT"}, "value": {"tensor": {"dtype": "DT_FLOAT", "tensorShape": {"dim": [{"size": "1"}, {"size": "1"}, {"size": "1"}, {"size": "64"}]}}}}}, {"name": "StatefulPartitionedCall/CollaGANAffluentGenerator/conv2d_transpose_3/strided_slice/stack", "op": "Const", "attr": {"dtype": {"type": "DT_INT32"}, "value": {"tensor": {"dtype": "DT_INT32", "tensorShape": {"dim": [{"size": "1"}]}}}}}, {"name": "StatefulPartitionedCall/CollaGANAffluentGenerator/conv2d_transpose_3/strided_slice/stack_1", "op": "Const", "attr": {"value": {"tensor": {"dtype": "DT_INT32", "tensorShape": {"dim": [{"size": "1"}]}}}, "dtype": {"type": "DT_INT32"}}}, {"name": "StatefulPartitionedCall/CollaGANAffluentGenerator/conv2d_transpose_3/strided_slice/stack_2", "op": "Const", "attr": {"dtype": {"type": "DT_INT32"}, "value": {"tensor": {"dtype": "DT_INT32", "tensorShape": {"dim": [{"size": "1"}]}}}}}, {"name": "StatefulPartitionedCall/CollaGANAffluentGenerator/conv2d_transpose_3/stack/1", "op": "Const", "attr": {"dtype": {"type": "DT_INT32"}, "value": {"tensor": {"dtype": "DT_INT32", "tensorShape": {}}}}}, {"name": "StatefulPartitionedCall/CollaGANAffluentGenerator/conv2d_transpose_3/stack/2", "op": "Const", "attr": {"dtype": {"type": "DT_INT32"}, "value": {"tensor": {"dtype": "DT_INT32", "tensorShape": {}}}}}, {"name": "StatefulPartitionedCall/CollaGANAffluentGenerator/conv2d_transpose_3/stack/3", "op": "Const", "attr": {"dtype": {"type": "DT_INT32"}, "value": {"tensor": {"dtype": "DT_INT32", "tensorShape": {}}}}}, {"name": "StatefulPartitionedCall/CollaGANAffluentGenerator/conv2d_transpose_3/conv2d_transpose/ReadVariableOp", "op": "Const", "attr": {"dtype": {"type": "DT_FLOAT"}, "value": {"tensor": {"dtype": "DT_FLOAT", "tensorShape": {"dim": [{"size": "2"}, {"size": "2"}, {"size": "64"}, {"size": "128"}]}}}}}, {"name": "StatefulPartitionedCall/CollaGANAffluentGenerator/instance_normalization_39/Reshape_1", "op": "Const", "attr": {"value": {"tensor": {"dtype": "DT_FLOAT", "tensorShape": {"dim": [{"size": "1"}, {"size": "1"}, {"size": "1"}, {"size": "128"}]}}}, "dtype": {"type": "DT_FLOAT"}}}, {"name": "StatefulPartitionedCall/CollaGANAffluentGenerator/instance_normalization_38/Reshape_1", "op": "Const", "attr": {"dtype": {"type": "DT_FLOAT"}, "value": {"tensor": {"dtype": "DT_FLOAT", "tensorShape": {"dim": [{"size": "1"}, {"size": "1"}, {"size": "1"}, {"size": "128"}]}}}}}, {"name": "StatefulPartitionedCall/CollaGANAffluentGenerator/conv2d_transpose_2/strided_slice/stack", "op": "Const", "attr": {"dtype": {"type": "DT_INT32"}, "value": {"tensor": {"dtype": "DT_INT32", "tensorShape": {"dim": [{"size": "1"}]}}}}}, {"name": "StatefulPartitionedCall/CollaGANAffluentGenerator/conv2d_transpose_2/strided_slice/stack_1", "op": "Const", "attr": {"dtype": {"type": "DT_INT32"}, "value": {"tensor": {"dtype": "DT_INT32", "tensorShape": {"dim": [{"size": "1"}]}}}}}, {"name": "StatefulPartitionedCall/CollaGANAffluentGenerator/conv2d_transpose_2/strided_slice/stack_2", "op": "Const", "attr": {"dtype": {"type": "DT_INT32"}, "value": {"tensor": {"dtype": "DT_INT32", "tensorShape": {"dim": [{"size": "1"}]}}}}}, {"name": "StatefulPartitionedCall/CollaGANAffluentGenerator/conv2d_transpose_2/stack/1", "op": "Const", "attr": {"dtype": {"type": "DT_INT32"}, "value": {"tensor": {"dtype": "DT_INT32", "tensorShape": {}}}}}, {"name": "StatefulPartitionedCall/CollaGANAffluentGenerator/conv2d_transpose_2/stack/2", "op": "Const", "attr": {"value": {"tensor": {"dtype": "DT_INT32", "tensorShape": {}}}, "dtype": {"type": "DT_INT32"}}}, {"name": "StatefulPartitionedCall/CollaGANAffluentGenerator/conv2d_transpose_2/stack/3", "op": "Const", "attr": {"dtype": {"type": "DT_INT32"}, "value": {"tensor": {"dtype": "DT_INT32", "tensorShape": {}}}}}, {"name": "StatefulPartitionedCall/CollaGANAffluentGenerator/conv2d_transpose_2/conv2d_transpose/ReadVariableOp", "op": "Const", "attr": {"dtype": {"type": "DT_FLOAT"}, "value": {"tensor": {"dtype": "DT_FLOAT", "tensorShape": {"dim": [{"size": "2"}, {"size": "2"}, {"size": "128"}, {"size": "256"}]}}}}}, {"name": "StatefulPartitionedCall/CollaGANAffluentGenerator/instance_normalization_37/Reshape_1", "op": "Const", "attr": {"value": {"tensor": {"dtype": "DT_FLOAT", "tensorShape": {"dim": [{"size": "1"}, {"size": "1"}, {"size": "1"}, {"size": "256"}]}}}, "dtype": {"type": "DT_FLOAT"}}}, {"name": "StatefulPartitionedCall/CollaGANAffluentGenerator/instance_normalization_36/Reshape_1", "op": "Const", "attr": {"dtype": {"type": "DT_FLOAT"}, "value": {"tensor": {"dtype": "DT_FLOAT", "tensorShape": {"dim": [{"size": "1"}, {"size": "1"}, {"size": "1"}, {"size": "256"}]}}}}}, {"name": "StatefulPartitionedCall/CollaGANAffluentGenerator/conv2d_transpose_1/strided_slice/stack", "op": "Const", "attr": {"dtype": {"type": "DT_INT32"}, "value": {"tensor": {"dtype": "DT_INT32", "tensorShape": {"dim": [{"size": "1"}]}}}}}, {"name": "StatefulPartitionedCall/CollaGANAffluentGenerator/conv2d_transpose_1/strided_slice/stack_1", "op": "Const", "attr": {"dtype": {"type": "DT_INT32"}, "value": {"tensor": {"dtype": "DT_INT32", "tensorShape": {"dim": [{"size": "1"}]}}}}}, {"name": "StatefulPartitionedCall/CollaGANAffluentGenerator/conv2d_transpose_1/strided_slice/stack_2", "op": "Const", "attr": {"value": {"tensor": {"dtype": "DT_INT32", "tensorShape": {"dim": [{"size": "1"}]}}}, "dtype": {"type": "DT_INT32"}}}, {"name": "StatefulPartitionedCall/CollaGANAffluentGenerator/conv2d_transpose_1/stack/1", "op": "Const", "attr": {"dtype": {"type": "DT_INT32"}, "value": {"tensor": {"dtype": "DT_INT32", "tensorShape": {}}}}}, {"name": "StatefulPartitionedCall/CollaGANAffluentGenerator/conv2d_transpose_1/stack/2", "op": "Const", "attr": {"dtype": {"type": "DT_INT32"}, "value": {"tensor": {"dtype": "DT_INT32", "tensorShape": {}}}}}, {"name": "StatefulPartitionedCall/CollaGANAffluentGenerator/conv2d_transpose_1/stack/3", "op": "Const", "attr": {"dtype": {"type": "DT_INT32"}, "value": {"tensor": {"dtype": "DT_INT32", "tensorShape": {}}}}}, {"name": "StatefulPartitionedCall/CollaGANAffluentGenerator/conv2d_transpose_1/conv2d_transpose/ReadVariableOp", "op": "Const", "attr": {"dtype": {"type": "DT_FLOAT"}, "value": {"tensor": {"dtype": "DT_FLOAT", "tensorShape": {"dim": [{"size": "2"}, {"size": "2"}, {"size": "256"}, {"size": "512"}]}}}}}, {"name": "StatefulPartitionedCall/CollaGANAffluentGenerator/instance_normalization_35/Reshape_1", "op": "Const", "attr": {"dtype": {"type": "DT_FLOAT"}, "value": {"tensor": {"dtype": "DT_FLOAT", "tensorShape": {"dim": [{"size": "1"}, {"size": "1"}, {"size": "1"}, {"size": "512"}]}}}}}, {"name": "StatefulPartitionedCall/CollaGANAffluentGenerator/instance_normalization_34/Reshape_1", "op": "Const", "attr": {"dtype": {"type": "DT_FLOAT"}, "value": {"tensor": {"dtype": "DT_FLOAT", "tensorShape": {"dim": [{"size": "1"}, {"size": "1"}, {"size": "1"}, {"size": "512"}]}}}}}, {"name": "StatefulPartitionedCall/CollaGANAffluentGenerator/conv2d_transpose/strided_slice/stack", "op": "Const", "attr": {"dtype": {"type": "DT_INT32"}, "value": {"tensor": {"dtype": "DT_INT32", "tensorShape": {"dim": [{"size": "1"}]}}}}}, {"name": "StatefulPartitionedCall/CollaGANAffluentGenerator/conv2d_transpose/strided_slice/stack_1", "op": "Const", "attr": {"dtype": {"type": "DT_INT32"}, "value": {"tensor": {"dtype": "DT_INT32", "tensorShape": {"dim": [{"size": "1"}]}}}}}, {"name": "StatefulPartitionedCall/CollaGANAffluentGenerator/conv2d_transpose/strided_slice/stack_2", "op": "Const", "attr": {"dtype": {"type": "DT_INT32"}, "value": {"tensor": {"dtype": "DT_INT32", "tensorShape": {"dim": [{"size": "1"}]}}}}}, {"name": "StatefulPartitionedCall/CollaGANAffluentGenerator/conv2d_transpose/stack/1", "op": "Const", "attr": {"dtype": {"type": "DT_INT32"}, "value": {"tensor": {"dtype": "DT_INT32", "tensorShape": {}}}}}, {"name": "StatefulPartitionedCall/CollaGANAffluentGenerator/conv2d_transpose/stack/2", "op": "Const", "attr": {"dtype": {"type": "DT_INT32"}, "value": {"tensor": {"dtype": "DT_INT32", "tensorShape": {}}}}}, {"name": "StatefulPartitionedCall/CollaGANAffluentGenerator/conv2d_transpose/stack/3", "op": "Const", "attr": {"dtype": {"type": "DT_INT32"}, "value": {"tensor": {"dtype": "DT_INT32", "tensorShape": {}}}}}, {"name": "StatefulPartitionedCall/CollaGANAffluentGenerator/conv2d_transpose/conv2d_transpose/ReadVariableOp", "op": "Const", "attr": {"value": {"tensor": {"dtype": "DT_FLOAT", "tensorShape": {"dim": [{"size": "2"}, {"size": "2"}, {"size": "512"}, {"size": "1024"}]}}}, "dtype": {"type": "DT_FLOAT"}}}, {"name": "StatefulPartitionedCall/CollaGANAffluentGenerator/instance_normalization_33/Reshape_1", "op": "Const", "attr": {"dtype": {"type": "DT_FLOAT"}, "value": {"tensor": {"dtype": "DT_FLOAT", "tensorShape": {"dim": [{"size": "1"}, {"size": "1"}, {"size": "1"}, {"size": "1024"}]}}}}}, {"name": "StatefulPartitionedCall/CollaGANAffluentGenerator/instance_normalization_32/Reshape_1", "op": "Const", "attr": {"dtype": {"type": "DT_FLOAT"}, "value": {"tensor": {"dtype": "DT_FLOAT", "tensorShape": {"dim": [{"size": "1"}, {"size": "1"}, {"size": "1"}, {"size": "1024"}]}}}}}, {"name": "StatefulPartitionedCall/CollaGANAffluentGenerator/instance_normalization_7/Reshape_1", "op": "Const", "attr": {"dtype": {"type": "DT_FLOAT"}, "value": {"tensor": {"dtype": "DT_FLOAT", "tensorShape": {"dim": [{"size": "1"}, {"size": "1"}, {"size": "1"}, {"size": "512"}]}}}}}, {"name": "StatefulPartitionedCall/CollaGANAffluentGenerator/instance_normalization_6/Reshape_1", "op": "Const", "attr": {"dtype": {"type": "DT_FLOAT"}, "value": {"tensor": {"dtype": "DT_FLOAT", "tensorShape": {"dim": [{"size": "1"}, {"size": "1"}, {"size": "1"}, {"size": "512"}]}}}}}, {"name": "StatefulPartitionedCall/CollaGANAffluentGenerator/instance_normalization_5/Reshape_1", "op": "Const", "attr": {"dtype": {"type": "DT_FLOAT"}, "value": {"tensor": {"dtype": "DT_FLOAT", "tensorShape": {"dim": [{"size": "1"}, {"size": "1"}, {"size": "1"}, {"size": "256"}]}}}}}, {"name": "StatefulPartitionedCall/CollaGANAffluentGenerator/instance_normalization_4/Reshape_1", "op": "Const", "attr": {"dtype": {"type": "DT_FLOAT"}, "value": {"tensor": {"dtype": "DT_FLOAT", "tensorShape": {"dim": [{"size": "1"}, {"size": "1"}, {"size": "1"}, {"size": "256"}]}}}}}, {"name": "StatefulPartitionedCall/CollaGANAffluentGenerator/instance_normalization_3/Reshape_1", "op": "Const", "attr": {"dtype": {"type": "DT_FLOAT"}, "value": {"tensor": {"dtype": "DT_FLOAT", "tensorShape": {"dim": [{"size": "1"}, {"size": "1"}, {"size": "1"}, {"size": "128"}]}}}}}, {"name": "StatefulPartitionedCall/CollaGANAffluentGenerator/instance_normalization_2/Reshape_1", "op": "Const", "attr": {"dtype": {"type": "DT_FLOAT"}, "value": {"tensor": {"dtype": "DT_FLOAT", "tensorShape": {"dim": [{"size": "1"}, {"size": "1"}, {"size": "1"}, {"size": "128"}]}}}}}, {"name": "StatefulPartitionedCall/CollaGANAffluentGenerator/instance_normalization_1/Reshape_1", "op": "Const", "attr": {"dtype": {"type": "DT_FLOAT"}, "value": {"tensor": {"dtype": "DT_FLOAT", "tensorShape": {"dim": [{"size": "1"}, {"size": "1"}, {"size": "1"}, {"size": "64"}]}}}}}, {"name": "StatefulPartitionedCall/CollaGANAffluentGenerator/instance_normalization/Reshape_1", "op": "Const", "attr": {"dtype": {"type": "DT_FLOAT"}, "value": {"tensor": {"dtype": "DT_FLOAT", "tensorShape": {"dim": [{"size": "1"}, {"size": "1"}, {"size": "1"}, {"size": "64"}]}}}}}, {"name": "StatefulPartitionedCall/CollaGANAffluentGenerator/tf.concat/concat/axis", "op": "Const", "attr": {"dtype": {"type": "DT_INT32"}, "value": {"tensor": {"dtype": "DT_INT32", "tensorShape": {}}}}}, {"name": "StatefulPartitionedCall/CollaGANAffluentGenerator/conv2d_101/Conv2D/ReadVariableOp", "op": "Const", "attr": {"dtype": {"type": "DT_FLOAT"}, "value": {"tensor": {"dtype": "DT_FLOAT", "tensorShape": {"dim": [{"size": "3"}, {"size": "3"}, {"size": "8"}, {"size": "64"}]}}}}}, {"name": "StatefulPartitionedCall/CollaGANAffluentGenerator/conv2d_101/BiasAdd/ReadVariableOp", "op": "Const", "attr": {"dtype": {"type": "DT_FLOAT"}, "value": {"tensor": {"dtype": "DT_FLOAT", "tensorShape": {"dim": [{"size": "64"}]}}}}}, {"name": "StatefulPartitionedCall/CollaGANAffluentGenerator/instance_normalization/moments/mean/reduction_indices", "op": "Const", "attr": {"dtype": {"type": "DT_INT32"}, "value": {"tensor": {"dtype": "DT_INT32", "tensorShape": {"dim": [{"size": "2"}]}}}}}, {"name": "StatefulPartitionedCall/CollaGANAffluentGenerator/instance_normalization/moments/variance/reduction_indices", "op": "Const", "attr": {"dtype": {"type": "DT_INT32"}, "value": {"tensor": {"dtype": "DT_INT32", "tensorShape": {"dim": [{"size": "2"}]}}}}}, {"name": "StatefulPartitionedCall/CollaGANAffluentGenerator/instance_normalization/batchnorm/add/y", "op": "Const", "attr": {"dtype": {"type": "DT_FLOAT"}, "value": {"tensor": {"dtype": "DT_FLOAT", "tensorShape": {}}}}}, {"name": "StatefulPartitionedCall/CollaGANAffluentGenerator/instance_normalization/Reshape", "op": "Const", "attr": {"dtype": {"type": "DT_FLOAT"}, "value": {"tensor": {"dtype": "DT_FLOAT", "tensorShape": {"dim": [{"size": "1"}, {"size": "1"}, {"size": "1"}, {"size": "64"}]}}}}}, {"name": "StatefulPartitionedCall/CollaGANAffluentGenerator/conv2d_102/Conv2D/ReadVariableOp", "op": "Const", "attr": {"dtype": {"type": "DT_FLOAT"}, "value": {"tensor": {"dtype": "DT_FLOAT", "tensorShape": {"dim": [{"size": "3"}, {"size": "3"}, {"size": "64"}, {"size": "64"}]}}}}}, {"name": "StatefulPartitionedCall/CollaGANAffluentGenerator/conv2d_102/BiasAdd/ReadVariableOp", "op": "Const", "attr": {"dtype": {"type": "DT_FLOAT"}, "value": {"tensor": {"dtype": "DT_FLOAT", "tensorShape": {"dim": [{"size": "64"}]}}}}}, {"name": "StatefulPartitionedCall/CollaGANAffluentGenerator/instance_normalization_1/moments/mean/reduction_indices", "op": "Const", "attr": {"dtype": {"type": "DT_INT32"}, "value": {"tensor": {"dtype": "DT_INT32", "tensorShape": {"dim": [{"size": "2"}]}}}}}, {"name": "StatefulPartitionedCall/CollaGANAffluentGenerator/instance_normalization_1/moments/variance/reduction_indices", "op": "Const", "attr": {"dtype": {"type": "DT_INT32"}, "value": {"tensor": {"dtype": "DT_INT32", "tensorShape": {"dim": [{"size": "2"}]}}}}}, {"name": "StatefulPartitionedCall/CollaGANAffluentGenerator/instance_normalization_1/batchnorm/add/y", "op": "Const", "attr": {"dtype": {"type": "DT_FLOAT"}, "value": {"tensor": {"dtype": "DT_FLOAT", "tensorShape": {}}}}}, {"name": "StatefulPartitionedCall/CollaGANAffluentGenerator/instance_normalization_1/Reshape", "op": "Const", "attr": {"value": {"tensor": {"dtype": "DT_FLOAT", "tensorShape": {"dim": [{"size": "1"}, {"size": "1"}, {"size": "1"}, {"size": "64"}]}}}, "dtype": {"type": "DT_FLOAT"}}}, {"name": "StatefulPartitionedCall/CollaGANAffluentGenerator/conv2d_103/Conv2D/ReadVariableOp", "op": "Const", "attr": {"value": {"tensor": {"dtype": "DT_FLOAT", "tensorShape": {"dim": [{"size": "2"}, {"size": "2"}, {"size": "64"}, {"size": "128"}]}}}, "dtype": {"type": "DT_FLOAT"}}}, {"name": "StatefulPartitionedCall/CollaGANAffluentGenerator/conv2d_104/Conv2D/ReadVariableOp", "op": "Const", "attr": {"value": {"tensor": {"dtype": "DT_FLOAT", "tensorShape": {"dim": [{"size": "3"}, {"size": "3"}, {"size": "128"}, {"size": "128"}]}}}, "dtype": {"type": "DT_FLOAT"}}}, {"name": "StatefulPartitionedCall/CollaGANAffluentGenerator/conv2d_104/BiasAdd/ReadVariableOp", "op": "Const", "attr": {"value": {"tensor": {"dtype": "DT_FLOAT", "tensorShape": {"dim": [{"size": "128"}]}}}, "dtype": {"type": "DT_FLOAT"}}}, {"name": "StatefulPartitionedCall/CollaGANAffluentGenerator/instance_normalization_2/moments/mean/reduction_indices", "op": "Const", "attr": {"dtype": {"type": "DT_INT32"}, "value": {"tensor": {"dtype": "DT_INT32", "tensorShape": {"dim": [{"size": "2"}]}}}}}, {"name": "StatefulPartitionedCall/CollaGANAffluentGenerator/instance_normalization_2/moments/variance/reduction_indices", "op": "Const", "attr": {"value": {"tensor": {"dtype": "DT_INT32", "tensorShape": {"dim": [{"size": "2"}]}}}, "dtype": {"type": "DT_INT32"}}}, {"name": "StatefulPartitionedCall/CollaGANAffluentGenerator/instance_normalization_2/batchnorm/add/y", "op": "Const", "attr": {"value": {"tensor": {"dtype": "DT_FLOAT", "tensorShape": {}}}, "dtype": {"type": "DT_FLOAT"}}}, {"name": "StatefulPartitionedCall/CollaGANAffluentGenerator/instance_normalization_2/Reshape", "op": "Const", "attr": {"dtype": {"type": "DT_FLOAT"}, "value": {"tensor": {"dtype": "DT_FLOAT", "tensorShape": {"dim": [{"size": "1"}, {"size": "1"}, {"size": "1"}, {"size": "128"}]}}}}}, {"name": "StatefulPartitionedCall/CollaGANAffluentGenerator/conv2d_105/Conv2D/ReadVariableOp", "op": "Const", "attr": {"dtype": {"type": "DT_FLOAT"}, "value": {"tensor": {"dtype": "DT_FLOAT", "tensorShape": {"dim": [{"size": "3"}, {"size": "3"}, {"size": "128"}, {"size": "128"}]}}}}}, {"name": "StatefulPartitionedCall/CollaGANAffluentGenerator/conv2d_105/BiasAdd/ReadVariableOp", "op": "Const", "attr": {"dtype": {"type": "DT_FLOAT"}, "value": {"tensor": {"dtype": "DT_FLOAT", "tensorShape": {"dim": [{"size": "128"}]}}}}}, {"name": "StatefulPartitionedCall/CollaGANAffluentGenerator/instance_normalization_3/moments/mean/reduction_indices", "op": "Const", "attr": {"value": {"tensor": {"dtype": "DT_INT32", "tensorShape": {"dim": [{"size": "2"}]}}}, "dtype": {"type": "DT_INT32"}}}, {"name": "StatefulPartitionedCall/CollaGANAffluentGenerator/instance_normalization_3/moments/variance/reduction_indices", "op": "Const", "attr": {"value": {"tensor": {"dtype": "DT_INT32", "tensorShape": {"dim": [{"size": "2"}]}}}, "dtype": {"type": "DT_INT32"}}}, {"name": "StatefulPartitionedCall/CollaGANAffluentGenerator/instance_normalization_3/batchnorm/add/y", "op": "Const", "attr": {"value": {"tensor": {"dtype": "DT_FLOAT", "tensorShape": {}}}, "dtype": {"type": "DT_FLOAT"}}}, {"name": "StatefulPartitionedCall/CollaGANAffluentGenerator/instance_normalization_3/Reshape", "op": "Const", "attr": {"dtype": {"type": "DT_FLOAT"}, "value": {"tensor": {"dtype": "DT_FLOAT", "tensorShape": {"dim": [{"size": "1"}, {"size": "1"}, {"size": "1"}, {"size": "128"}]}}}}}, {"name": "StatefulPartitionedCall/CollaGANAffluentGenerator/conv2d_106/Conv2D/ReadVariableOp", "op": "Const", "attr": {"value": {"tensor": {"dtype": "DT_FLOAT", "tensorShape": {"dim": [{"size": "2"}, {"size": "2"}, {"size": "128"}, {"size": "256"}]}}}, "dtype": {"type": "DT_FLOAT"}}}, {"name": "StatefulPartitionedCall/CollaGANAffluentGenerator/conv2d_107/Conv2D/ReadVariableOp", "op": "Const", "attr": {"value": {"tensor": {"dtype": "DT_FLOAT", "tensorShape": {"dim": [{"size": "3"}, {"size": "3"}, {"size": "256"}, {"size": "256"}]}}}, "dtype": {"type": "DT_FLOAT"}}}, {"name": "StatefulPartitionedCall/CollaGANAffluentGenerator/conv2d_107/BiasAdd/ReadVariableOp", "op": "Const", "attr": {"value": {"tensor": {"dtype": "DT_FLOAT", "tensorShape": {"dim": [{"size": "256"}]}}}, "dtype": {"type": "DT_FLOAT"}}}, {"name": "StatefulPartitionedCall/CollaGANAffluentGenerator/instance_normalization_4/moments/mean/reduction_indices", "op": "Const", "attr": {"value": {"tensor": {"dtype": "DT_INT32", "tensorShape": {"dim": [{"size": "2"}]}}}, "dtype": {"type": "DT_INT32"}}}, {"name": "StatefulPartitionedCall/CollaGANAffluentGenerator/instance_normalization_4/moments/variance/reduction_indices", "op": "Const", "attr": {"value": {"tensor": {"dtype": "DT_INT32", "tensorShape": {"dim": [{"size": "2"}]}}}, "dtype": {"type": "DT_INT32"}}}, {"name": "StatefulPartitionedCall/CollaGANAffluentGenerator/instance_normalization_4/batchnorm/add/y", "op": "Const", "attr": {"value": {"tensor": {"dtype": "DT_FLOAT", "tensorShape": {}}}, "dtype": {"type": "DT_FLOAT"}}}, {"name": "StatefulPartitionedCall/CollaGANAffluentGenerator/instance_normalization_4/Reshape", "op": "Const", "attr": {"value": {"tensor": {"dtype": "DT_FLOAT", "tensorShape": {"dim": [{"size": "1"}, {"size": "1"}, {"size": "1"}, {"size": "256"}]}}}, "dtype": {"type": "DT_FLOAT"}}}, {"name": "StatefulPartitionedCall/CollaGANAffluentGenerator/conv2d_108/Conv2D/ReadVariableOp", "op": "Const", "attr": {"value": {"tensor": {"dtype": "DT_FLOAT", "tensorShape": {"dim": [{"size": "3"}, {"size": "3"}, {"size": "256"}, {"size": "256"}]}}}, "dtype": {"type": "DT_FLOAT"}}}, {"name": "StatefulPartitionedCall/CollaGANAffluentGenerator/conv2d_108/BiasAdd/ReadVariableOp", "op": "Const", "attr": {"value": {"tensor": {"dtype": "DT_FLOAT", "tensorShape": {"dim": [{"size": "256"}]}}}, "dtype": {"type": "DT_FLOAT"}}}, {"name": "StatefulPartitionedCall/CollaGANAffluentGenerator/instance_normalization_5/moments/mean/reduction_indices", "op": "Const", "attr": {"value": {"tensor": {"dtype": "DT_INT32", "tensorShape": {"dim": [{"size": "2"}]}}}, "dtype": {"type": "DT_INT32"}}}, {"name": "StatefulPartitionedCall/CollaGANAffluentGenerator/instance_normalization_5/moments/variance/reduction_indices", "op": "Const", "attr": {"value": {"tensor": {"dtype": "DT_INT32", "tensorShape": {"dim": [{"size": "2"}]}}}, "dtype": {"type": "DT_INT32"}}}, {"name": "StatefulPartitionedCall/CollaGANAffluentGenerator/instance_normalization_5/batchnorm/add/y", "op": "Const", "attr": {"value": {"tensor": {"dtype": "DT_FLOAT", "tensorShape": {}}}, "dtype": {"type": "DT_FLOAT"}}}, {"name": "StatefulPartitionedCall/CollaGANAffluentGenerator/instance_normalization_5/Reshape", "op": "Const", "attr": {"value": {"tensor": {"dtype": "DT_FLOAT", "tensorShape": {"dim": [{"size": "1"}, {"size": "1"}, {"size": "1"}, {"size": "256"}]}}}, "dtype": {"type": "DT_FLOAT"}}}, {"name": "StatefulPartitionedCall/CollaGANAffluentGenerator/conv2d_109/Conv2D/ReadVariableOp", "op": "Const", "attr": {"dtype": {"type": "DT_FLOAT"}, "value": {"tensor": {"dtype": "DT_FLOAT", "tensorShape": {"dim": [{"size": "2"}, {"size": "2"}, {"size": "256"}, {"size": "512"}]}}}}}, {"name": "StatefulPartitionedCall/CollaGANAffluentGenerator/conv2d_110/Conv2D/ReadVariableOp", "op": "Const", "attr": {"value": {"tensor": {"dtype": "DT_FLOAT", "tensorShape": {"dim": [{"size": "3"}, {"size": "3"}, {"size": "512"}, {"size": "512"}]}}}, "dtype": {"type": "DT_FLOAT"}}}, {"name": "StatefulPartitionedCall/CollaGANAffluentGenerator/conv2d_110/BiasAdd/ReadVariableOp", "op": "Const", "attr": {"dtype": {"type": "DT_FLOAT"}, "value": {"tensor": {"dtype": "DT_FLOAT", "tensorShape": {"dim": [{"size": "512"}]}}}}}, {"name": "StatefulPartitionedCall/CollaGANAffluentGenerator/instance_normalization_6/moments/mean/reduction_indices", "op": "Const", "attr": {"dtype": {"type": "DT_INT32"}, "value": {"tensor": {"dtype": "DT_INT32", "tensorShape": {"dim": [{"size": "2"}]}}}}}, {"name": "StatefulPartitionedCall/CollaGANAffluentGenerator/instance_normalization_6/moments/variance/reduction_indices", "op": "Const", "attr": {"value": {"tensor": {"dtype": "DT_INT32", "tensorShape": {"dim": [{"size": "2"}]}}}, "dtype": {"type": "DT_INT32"}}}, {"name": "StatefulPartitionedCall/CollaGANAffluentGenerator/instance_normalization_6/batchnorm/add/y", "op": "Const", "attr": {"value": {"tensor": {"dtype": "DT_FLOAT", "tensorShape": {}}}, "dtype": {"type": "DT_FLOAT"}}}, {"name": "StatefulPartitionedCall/CollaGANAffluentGenerator/instance_normalization_6/Reshape", "op": "Const", "attr": {"value": {"tensor": {"dtype": "DT_FLOAT", "tensorShape": {"dim": [{"size": "1"}, {"size": "1"}, {"size": "1"}, {"size": "512"}]}}}, "dtype": {"type": "DT_FLOAT"}}}, {"name": "StatefulPartitionedCall/CollaGANAffluentGenerator/conv2d_111/Conv2D/ReadVariableOp", "op": "Const", "attr": {"value": {"tensor": {"dtype": "DT_FLOAT", "tensorShape": {"dim": [{"size": "3"}, {"size": "3"}, {"size": "512"}, {"size": "512"}]}}}, "dtype": {"type": "DT_FLOAT"}}}, {"name": "StatefulPartitionedCall/CollaGANAffluentGenerator/conv2d_111/BiasAdd/ReadVariableOp", "op": "Const", "attr": {"value": {"tensor": {"dtype": "DT_FLOAT", "tensorShape": {"dim": [{"size": "512"}]}}}, "dtype": {"type": "DT_FLOAT"}}}, {"name": "StatefulPartitionedCall/CollaGANAffluentGenerator/instance_normalization_7/moments/mean/reduction_indices", "op": "Const", "attr": {"value": {"tensor": {"dtype": "DT_INT32", "tensorShape": {"dim": [{"size": "2"}]}}}, "dtype": {"type": "DT_INT32"}}}, {"name": "StatefulPartitionedCall/CollaGANAffluentGenerator/instance_normalization_7/moments/variance/reduction_indices", "op": "Const", "attr": {"value": {"tensor": {"dtype": "DT_INT32", "tensorShape": {"dim": [{"size": "2"}]}}}, "dtype": {"type": "DT_INT32"}}}, {"name": "StatefulPartitionedCall/CollaGANAffluentGenerator/instance_normalization_7/batchnorm/add/y", "op": "Const", "attr": {"value": {"tensor": {"dtype": "DT_FLOAT", "tensorShape": {}}}, "dtype": {"type": "DT_FLOAT"}}}, {"name": "StatefulPartitionedCall/CollaGANAffluentGenerator/instance_normalization_7/Reshape", "op": "Const", "attr": {"dtype": {"type": "DT_FLOAT"}, "value": {"tensor": {"dtype": "DT_FLOAT", "tensorShape": {"dim": [{"size": "1"}, {"size": "1"}, {"size": "1"}, {"size": "512"}]}}}}}, {"name": "StatefulPartitionedCall/CollaGANAffluentGenerator/conv2d_112/Conv2D/ReadVariableOp", "op": "Const", "attr": {"dtype": {"type": "DT_FLOAT"}, "value": {"tensor": {"dtype": "DT_FLOAT", "tensorShape": {"dim": [{"size": "2"}, {"size": "2"}, {"size": "512"}, {"size": "1024"}]}}}}}, {"name": "StatefulPartitionedCall/CollaGANAffluentGenerator/instance_normalization_15/Reshape_1", "op": "Const", "attr": {"value": {"tensor": {"dtype": "DT_FLOAT", "tensorShape": {"dim": [{"size": "1"}, {"size": "1"}, {"size": "1"}, {"size": "512"}]}}}, "dtype": {"type": "DT_FLOAT"}}}, {"name": "StatefulPartitionedCall/CollaGANAffluentGenerator/instance_normalization_14/Reshape_1", "op": "Const", "attr": {"value": {"tensor": {"dtype": "DT_FLOAT", "tensorShape": {"dim": [{"size": "1"}, {"size": "1"}, {"size": "1"}, {"size": "512"}]}}}, "dtype": {"type": "DT_FLOAT"}}}, {"name": "StatefulPartitionedCall/CollaGANAffluentGenerator/instance_normalization_13/Reshape_1", "op": "Const", "attr": {"value": {"tensor": {"dtype": "DT_FLOAT", "tensorShape": {"dim": [{"size": "1"}, {"size": "1"}, {"size": "1"}, {"size": "256"}]}}}, "dtype": {"type": "DT_FLOAT"}}}, {"name": "StatefulPartitionedCall/CollaGANAffluentGenerator/instance_normalization_12/Reshape_1", "op": "Const", "attr": {"value": {"tensor": {"dtype": "DT_FLOAT", "tensorShape": {"dim": [{"size": "1"}, {"size": "1"}, {"size": "1"}, {"size": "256"}]}}}, "dtype": {"type": "DT_FLOAT"}}}, {"name": "StatefulPartitionedCall/CollaGANAffluentGenerator/instance_normalization_11/Reshape_1", "op": "Const", "attr": {"value": {"tensor": {"dtype": "DT_FLOAT", "tensorShape": {"dim": [{"size": "1"}, {"size": "1"}, {"size": "1"}, {"size": "128"}]}}}, "dtype": {"type": "DT_FLOAT"}}}, {"name": "StatefulPartitionedCall/CollaGANAffluentGenerator/instance_normalization_10/Reshape_1", "op": "Const", "attr": {"value": {"tensor": {"dtype": "DT_FLOAT", "tensorShape": {"dim": [{"size": "1"}, {"size": "1"}, {"size": "1"}, {"size": "128"}]}}}, "dtype": {"type": "DT_FLOAT"}}}, {"name": "StatefulPartitionedCall/CollaGANAffluentGenerator/instance_normalization_9/Reshape_1", "op": "Const", "attr": {"value": {"tensor": {"dtype": "DT_FLOAT", "tensorShape": {"dim": [{"size": "1"}, {"size": "1"}, {"size": "1"}, {"size": "64"}]}}}, "dtype": {"type": "DT_FLOAT"}}}, {"name": "StatefulPartitionedCall/CollaGANAffluentGenerator/instance_normalization_8/Reshape_1", "op": "Const", "attr": {"value": {"tensor": {"dtype": "DT_FLOAT", "tensorShape": {"dim": [{"size": "1"}, {"size": "1"}, {"size": "1"}, {"size": "64"}]}}}, "dtype": {"type": "DT_FLOAT"}}}, {"name": "StatefulPartitionedCall/CollaGANAffluentGenerator/tf.concat_1/concat/axis", "op": "Const", "attr": {"value": {"tensor": {"dtype": "DT_INT32", "tensorShape": {}}}, "dtype": {"type": "DT_INT32"}}}, {"name": "StatefulPartitionedCall/CollaGANAffluentGenerator/conv2d_113/Conv2D/ReadVariableOp", "op": "Const", "attr": {"value": {"tensor": {"dtype": "DT_FLOAT", "tensorShape": {"dim": [{"size": "3"}, {"size": "3"}, {"size": "8"}, {"size": "64"}]}}}, "dtype": {"type": "DT_FLOAT"}}}, {"name": "StatefulPartitionedCall/CollaGANAffluentGenerator/conv2d_113/BiasAdd/ReadVariableOp", "op": "Const", "attr": {"value": {"tensor": {"dtype": "DT_FLOAT", "tensorShape": {"dim": [{"size": "64"}]}}}, "dtype": {"type": "DT_FLOAT"}}}, {"name": "StatefulPartitionedCall/CollaGANAffluentGenerator/instance_normalization_8/moments/mean/reduction_indices", "op": "Const", "attr": {"value": {"tensor": {"dtype": "DT_INT32", "tensorShape": {"dim": [{"size": "2"}]}}}, "dtype": {"type": "DT_INT32"}}}, {"name": "StatefulPartitionedCall/CollaGANAffluentGenerator/instance_normalization_8/moments/variance/reduction_indices", "op": "Const", "attr": {"value": {"tensor": {"dtype": "DT_INT32", "tensorShape": {"dim": [{"size": "2"}]}}}, "dtype": {"type": "DT_INT32"}}}, {"name": "StatefulPartitionedCall/CollaGANAffluentGenerator/instance_normalization_8/batchnorm/add/y", "op": "Const", "attr": {"value": {"tensor": {"dtype": "DT_FLOAT", "tensorShape": {}}}, "dtype": {"type": "DT_FLOAT"}}}, {"name": "StatefulPartitionedCall/CollaGANAffluentGenerator/instance_normalization_8/Reshape", "op": "Const", "attr": {"value": {"tensor": {"dtype": "DT_FLOAT", "tensorShape": {"dim": [{"size": "1"}, {"size": "1"}, {"size": "1"}, {"size": "64"}]}}}, "dtype": {"type": "DT_FLOAT"}}}, {"name": "StatefulPartitionedCall/CollaGANAffluentGenerator/conv2d_114/Conv2D/ReadVariableOp", "op": "Const", "attr": {"value": {"tensor": {"dtype": "DT_FLOAT", "tensorShape": {"dim": [{"size": "3"}, {"size": "3"}, {"size": "64"}, {"size": "64"}]}}}, "dtype": {"type": "DT_FLOAT"}}}, {"name": "StatefulPartitionedCall/CollaGANAffluentGenerator/conv2d_114/BiasAdd/ReadVariableOp", "op": "Const", "attr": {"value": {"tensor": {"dtype": "DT_FLOAT", "tensorShape": {"dim": [{"size": "64"}]}}}, "dtype": {"type": "DT_FLOAT"}}}, {"name": "StatefulPartitionedCall/CollaGANAffluentGenerator/instance_normalization_9/moments/mean/reduction_indices", "op": "Const", "attr": {"value": {"tensor": {"dtype": "DT_INT32", "tensorShape": {"dim": [{"size": "2"}]}}}, "dtype": {"type": "DT_INT32"}}}, {"name": "StatefulPartitionedCall/CollaGANAffluentGenerator/instance_normalization_9/moments/variance/reduction_indices", "op": "Const", "attr": {"value": {"tensor": {"dtype": "DT_INT32", "tensorShape": {"dim": [{"size": "2"}]}}}, "dtype": {"type": "DT_INT32"}}}, {"name": "StatefulPartitionedCall/CollaGANAffluentGenerator/instance_normalization_9/batchnorm/add/y", "op": "Const", "attr": {"value": {"tensor": {"dtype": "DT_FLOAT", "tensorShape": {}}}, "dtype": {"type": "DT_FLOAT"}}}, {"name": "StatefulPartitionedCall/CollaGANAffluentGenerator/instance_normalization_9/Reshape", "op": "Const", "attr": {"value": {"tensor": {"dtype": "DT_FLOAT", "tensorShape": {"dim": [{"size": "1"}, {"size": "1"}, {"size": "1"}, {"size": "64"}]}}}, "dtype": {"type": "DT_FLOAT"}}}, {"name": "StatefulPartitionedCall/CollaGANAffluentGenerator/conv2d_115/Conv2D/ReadVariableOp", "op": "Const", "attr": {"dtype": {"type": "DT_FLOAT"}, "value": {"tensor": {"dtype": "DT_FLOAT", "tensorShape": {"dim": [{"size": "2"}, {"size": "2"}, {"size": "64"}, {"size": "128"}]}}}}}, {"name": "StatefulPartitionedCall/CollaGANAffluentGenerator/conv2d_116/Conv2D/ReadVariableOp", "op": "Const", "attr": {"dtype": {"type": "DT_FLOAT"}, "value": {"tensor": {"dtype": "DT_FLOAT", "tensorShape": {"dim": [{"size": "3"}, {"size": "3"}, {"size": "128"}, {"size": "128"}]}}}}}, {"name": "StatefulPartitionedCall/CollaGANAffluentGenerator/conv2d_116/BiasAdd/ReadVariableOp", "op": "Const", "attr": {"dtype": {"type": "DT_FLOAT"}, "value": {"tensor": {"dtype": "DT_FLOAT", "tensorShape": {"dim": [{"size": "128"}]}}}}}, {"name": "StatefulPartitionedCall/CollaGANAffluentGenerator/instance_normalization_10/moments/mean/reduction_indices", "op": "Const", "attr": {"value": {"tensor": {"dtype": "DT_INT32", "tensorShape": {"dim": [{"size": "2"}]}}}, "dtype": {"type": "DT_INT32"}}}, {"name": "StatefulPartitionedCall/CollaGANAffluentGenerator/instance_normalization_10/moments/variance/reduction_indices", "op": "Const", "attr": {"value": {"tensor": {"dtype": "DT_INT32", "tensorShape": {"dim": [{"size": "2"}]}}}, "dtype": {"type": "DT_INT32"}}}, {"name": "StatefulPartitionedCall/CollaGANAffluentGenerator/instance_normalization_10/batchnorm/add/y", "op": "Const", "attr": {"value": {"tensor": {"dtype": "DT_FLOAT", "tensorShape": {}}}, "dtype": {"type": "DT_FLOAT"}}}, {"name": "StatefulPartitionedCall/CollaGANAffluentGenerator/instance_normalization_10/Reshape", "op": "Const", "attr": {"value": {"tensor": {"dtype": "DT_FLOAT", "tensorShape": {"dim": [{"size": "1"}, {"size": "1"}, {"size": "1"}, {"size": "128"}]}}}, "dtype": {"type": "DT_FLOAT"}}}, {"name": "StatefulPartitionedCall/CollaGANAffluentGenerator/conv2d_117/Conv2D/ReadVariableOp", "op": "Const", "attr": {"dtype": {"type": "DT_FLOAT"}, "value": {"tensor": {"dtype": "DT_FLOAT", "tensorShape": {"dim": [{"size": "3"}, {"size": "3"}, {"size": "128"}, {"size": "128"}]}}}}}, {"name": "StatefulPartitionedCall/CollaGANAffluentGenerator/conv2d_117/BiasAdd/ReadVariableOp", "op": "Const", "attr": {"value": {"tensor": {"dtype": "DT_FLOAT", "tensorShape": {"dim": [{"size": "128"}]}}}, "dtype": {"type": "DT_FLOAT"}}}, {"name": "StatefulPartitionedCall/CollaGANAffluentGenerator/instance_normalization_11/moments/mean/reduction_indices", "op": "Const", "attr": {"dtype": {"type": "DT_INT32"}, "value": {"tensor": {"dtype": "DT_INT32", "tensorShape": {"dim": [{"size": "2"}]}}}}}, {"name": "StatefulPartitionedCall/CollaGANAffluentGenerator/instance_normalization_11/moments/variance/reduction_indices", "op": "Const", "attr": {"value": {"tensor": {"dtype": "DT_INT32", "tensorShape": {"dim": [{"size": "2"}]}}}, "dtype": {"type": "DT_INT32"}}}, {"name": "StatefulPartitionedCall/CollaGANAffluentGenerator/instance_normalization_11/batchnorm/add/y", "op": "Const", "attr": {"dtype": {"type": "DT_FLOAT"}, "value": {"tensor": {"dtype": "DT_FLOAT", "tensorShape": {}}}}}, {"name": "StatefulPartitionedCall/CollaGANAffluentGenerator/instance_normalization_11/Reshape", "op": "Const", "attr": {"value": {"tensor": {"dtype": "DT_FLOAT", "tensorShape": {"dim": [{"size": "1"}, {"size": "1"}, {"size": "1"}, {"size": "128"}]}}}, "dtype": {"type": "DT_FLOAT"}}}, {"name": "StatefulPartitionedCall/CollaGANAffluentGenerator/conv2d_118/Conv2D/ReadVariableOp", "op": "Const", "attr": {"value": {"tensor": {"dtype": "DT_FLOAT", "tensorShape": {"dim": [{"size": "2"}, {"size": "2"}, {"size": "128"}, {"size": "256"}]}}}, "dtype": {"type": "DT_FLOAT"}}}, {"name": "StatefulPartitionedCall/CollaGANAffluentGenerator/conv2d_119/Conv2D/ReadVariableOp", "op": "Const", "attr": {"value": {"tensor": {"dtype": "DT_FLOAT", "tensorShape": {"dim": [{"size": "3"}, {"size": "3"}, {"size": "256"}, {"size": "256"}]}}}, "dtype": {"type": "DT_FLOAT"}}}, {"name": "StatefulPartitionedCall/CollaGANAffluentGenerator/conv2d_119/BiasAdd/ReadVariableOp", "op": "Const", "attr": {"dtype": {"type": "DT_FLOAT"}, "value": {"tensor": {"dtype": "DT_FLOAT", "tensorShape": {"dim": [{"size": "256"}]}}}}}, {"name": "StatefulPartitionedCall/CollaGANAffluentGenerator/instance_normalization_12/moments/mean/reduction_indices", "op": "Const", "attr": {"value": {"tensor": {"dtype": "DT_INT32", "tensorShape": {"dim": [{"size": "2"}]}}}, "dtype": {"type": "DT_INT32"}}}, {"name": "StatefulPartitionedCall/CollaGANAffluentGenerator/instance_normalization_12/moments/variance/reduction_indices", "op": "Const", "attr": {"value": {"tensor": {"dtype": "DT_INT32", "tensorShape": {"dim": [{"size": "2"}]}}}, "dtype": {"type": "DT_INT32"}}}, {"name": "StatefulPartitionedCall/CollaGANAffluentGenerator/instance_normalization_12/batchnorm/add/y", "op": "Const", "attr": {"value": {"tensor": {"dtype": "DT_FLOAT", "tensorShape": {}}}, "dtype": {"type": "DT_FLOAT"}}}, {"name": "StatefulPartitionedCall/CollaGANAffluentGenerator/instance_normalization_12/Reshape", "op": "Const", "attr": {"dtype": {"type": "DT_FLOAT"}, "value": {"tensor": {"dtype": "DT_FLOAT", "tensorShape": {"dim": [{"size": "1"}, {"size": "1"}, {"size": "1"}, {"size": "256"}]}}}}}, {"name": "StatefulPartitionedCall/CollaGANAffluentGenerator/conv2d_120/Conv2D/ReadVariableOp", "op": "Const", "attr": {"dtype": {"type": "DT_FLOAT"}, "value": {"tensor": {"dtype": "DT_FLOAT", "tensorShape": {"dim": [{"size": "3"}, {"size": "3"}, {"size": "256"}, {"size": "256"}]}}}}}, {"name": "StatefulPartitionedCall/CollaGANAffluentGenerator/conv2d_120/BiasAdd/ReadVariableOp", "op": "Const", "attr": {"value": {"tensor": {"dtype": "DT_FLOAT", "tensorShape": {"dim": [{"size": "256"}]}}}, "dtype": {"type": "DT_FLOAT"}}}, {"name": "StatefulPartitionedCall/CollaGANAffluentGenerator/instance_normalization_13/moments/mean/reduction_indices", "op": "Const", "attr": {"value": {"tensor": {"dtype": "DT_INT32", "tensorShape": {"dim": [{"size": "2"}]}}}, "dtype": {"type": "DT_INT32"}}}, {"name": "StatefulPartitionedCall/CollaGANAffluentGenerator/instance_normalization_13/moments/variance/reduction_indices", "op": "Const", "attr": {"value": {"tensor": {"dtype": "DT_INT32", "tensorShape": {"dim": [{"size": "2"}]}}}, "dtype": {"type": "DT_INT32"}}}, {"name": "StatefulPartitionedCall/CollaGANAffluentGenerator/instance_normalization_13/batchnorm/add/y", "op": "Const", "attr": {"dtype": {"type": "DT_FLOAT"}, "value": {"tensor": {"dtype": "DT_FLOAT", "tensorShape": {}}}}}, {"name": "StatefulPartitionedCall/CollaGANAffluentGenerator/instance_normalization_13/Reshape", "op": "Const", "attr": {"value": {"tensor": {"dtype": "DT_FLOAT", "tensorShape": {"dim": [{"size": "1"}, {"size": "1"}, {"size": "1"}, {"size": "256"}]}}}, "dtype": {"type": "DT_FLOAT"}}}, {"name": "StatefulPartitionedCall/CollaGANAffluentGenerator/conv2d_121/Conv2D/ReadVariableOp", "op": "Const", "attr": {"value": {"tensor": {"dtype": "DT_FLOAT", "tensorShape": {"dim": [{"size": "2"}, {"size": "2"}, {"size": "256"}, {"size": "512"}]}}}, "dtype": {"type": "DT_FLOAT"}}}, {"name": "StatefulPartitionedCall/CollaGANAffluentGenerator/conv2d_122/Conv2D/ReadVariableOp", "op": "Const", "attr": {"dtype": {"type": "DT_FLOAT"}, "value": {"tensor": {"dtype": "DT_FLOAT", "tensorShape": {"dim": [{"size": "3"}, {"size": "3"}, {"size": "512"}, {"size": "512"}]}}}}}, {"name": "StatefulPartitionedCall/CollaGANAffluentGenerator/conv2d_122/BiasAdd/ReadVariableOp", "op": "Const", "attr": {"value": {"tensor": {"dtype": "DT_FLOAT", "tensorShape": {"dim": [{"size": "512"}]}}}, "dtype": {"type": "DT_FLOAT"}}}, {"name": "StatefulPartitionedCall/CollaGANAffluentGenerator/instance_normalization_14/moments/mean/reduction_indices", "op": "Const", "attr": {"value": {"tensor": {"dtype": "DT_INT32", "tensorShape": {"dim": [{"size": "2"}]}}}, "dtype": {"type": "DT_INT32"}}}, {"name": "StatefulPartitionedCall/CollaGANAffluentGenerator/instance_normalization_14/moments/variance/reduction_indices", "op": "Const", "attr": {"value": {"tensor": {"dtype": "DT_INT32", "tensorShape": {"dim": [{"size": "2"}]}}}, "dtype": {"type": "DT_INT32"}}}, {"name": "StatefulPartitionedCall/CollaGANAffluentGenerator/instance_normalization_14/batchnorm/add/y", "op": "Const", "attr": {"value": {"tensor": {"dtype": "DT_FLOAT", "tensorShape": {}}}, "dtype": {"type": "DT_FLOAT"}}}, {"name": "StatefulPartitionedCall/CollaGANAffluentGenerator/instance_normalization_14/Reshape", "op": "Const", "attr": {"dtype": {"type": "DT_FLOAT"}, "value": {"tensor": {"dtype": "DT_FLOAT", "tensorShape": {"dim": [{"size": "1"}, {"size": "1"}, {"size": "1"}, {"size": "512"}]}}}}}, {"name": "StatefulPartitionedCall/CollaGANAffluentGenerator/conv2d_123/Conv2D/ReadVariableOp", "op": "Const", "attr": {"value": {"tensor": {"dtype": "DT_FLOAT", "tensorShape": {"dim": [{"size": "3"}, {"size": "3"}, {"size": "512"}, {"size": "512"}]}}}, "dtype": {"type": "DT_FLOAT"}}}, {"name": "StatefulPartitionedCall/CollaGANAffluentGenerator/conv2d_123/BiasAdd/ReadVariableOp", "op": "Const", "attr": {"value": {"tensor": {"dtype": "DT_FLOAT", "tensorShape": {"dim": [{"size": "512"}]}}}, "dtype": {"type": "DT_FLOAT"}}}, {"name": "StatefulPartitionedCall/CollaGANAffluentGenerator/instance_normalization_15/moments/mean/reduction_indices", "op": "Const", "attr": {"value": {"tensor": {"dtype": "DT_INT32", "tensorShape": {"dim": [{"size": "2"}]}}}, "dtype": {"type": "DT_INT32"}}}, {"name": "StatefulPartitionedCall/CollaGANAffluentGenerator/instance_normalization_15/moments/variance/reduction_indices", "op": "Const", "attr": {"value": {"tensor": {"dtype": "DT_INT32", "tensorShape": {"dim": [{"size": "2"}]}}}, "dtype": {"type": "DT_INT32"}}}, {"name": "StatefulPartitionedCall/CollaGANAffluentGenerator/instance_normalization_15/batchnorm/add/y", "op": "Const", "attr": {"dtype": {"type": "DT_FLOAT"}, "value": {"tensor": {"dtype": "DT_FLOAT", "tensorShape": {}}}}}, {"name": "StatefulPartitionedCall/CollaGANAffluentGenerator/instance_normalization_15/Reshape", "op": "Const", "attr": {"dtype": {"type": "DT_FLOAT"}, "value": {"tensor": {"dtype": "DT_FLOAT", "tensorShape": {"dim": [{"size": "1"}, {"size": "1"}, {"size": "1"}, {"size": "512"}]}}}}}, {"name": "StatefulPartitionedCall/CollaGANAffluentGenerator/conv2d_124/Conv2D/ReadVariableOp", "op": "Const", "attr": {"value": {"tensor": {"dtype": "DT_FLOAT", "tensorShape": {"dim": [{"size": "2"}, {"size": "2"}, {"size": "512"}, {"size": "1024"}]}}}, "dtype": {"type": "DT_FLOAT"}}}, {"name": "StatefulPartitionedCall/CollaGANAffluentGenerator/instance_normalization_23/Reshape_1", "op": "Const", "attr": {"dtype": {"type": "DT_FLOAT"}, "value": {"tensor": {"dtype": "DT_FLOAT", "tensorShape": {"dim": [{"size": "1"}, {"size": "1"}, {"size": "1"}, {"size": "512"}]}}}}}, {"name": "StatefulPartitionedCall/CollaGANAffluentGenerator/instance_normalization_22/Reshape_1", "op": "Const", "attr": {"dtype": {"type": "DT_FLOAT"}, "value": {"tensor": {"dtype": "DT_FLOAT", "tensorShape": {"dim": [{"size": "1"}, {"size": "1"}, {"size": "1"}, {"size": "512"}]}}}}}, {"name": "StatefulPartitionedCall/CollaGANAffluentGenerator/instance_normalization_21/Reshape_1", "op": "Const", "attr": {"dtype": {"type": "DT_FLOAT"}, "value": {"tensor": {"dtype": "DT_FLOAT", "tensorShape": {"dim": [{"size": "1"}, {"size": "1"}, {"size": "1"}, {"size": "256"}]}}}}}, {"name": "StatefulPartitionedCall/CollaGANAffluentGenerator/instance_normalization_20/Reshape_1", "op": "Const", "attr": {"dtype": {"type": "DT_FLOAT"}, "value": {"tensor": {"dtype": "DT_FLOAT", "tensorShape": {"dim": [{"size": "1"}, {"size": "1"}, {"size": "1"}, {"size": "256"}]}}}}}, {"name": "StatefulPartitionedCall/CollaGANAffluentGenerator/instance_normalization_19/Reshape_1", "op": "Const", "attr": {"value": {"tensor": {"dtype": "DT_FLOAT", "tensorShape": {"dim": [{"size": "1"}, {"size": "1"}, {"size": "1"}, {"size": "128"}]}}}, "dtype": {"type": "DT_FLOAT"}}}, {"name": "StatefulPartitionedCall/CollaGANAffluentGenerator/instance_normalization_18/Reshape_1", "op": "Const", "attr": {"dtype": {"type": "DT_FLOAT"}, "value": {"tensor": {"dtype": "DT_FLOAT", "tensorShape": {"dim": [{"size": "1"}, {"size": "1"}, {"size": "1"}, {"size": "128"}]}}}}}, {"name": "StatefulPartitionedCall/CollaGANAffluentGenerator/instance_normalization_17/Reshape_1", "op": "Const", "attr": {"dtype": {"type": "DT_FLOAT"}, "value": {"tensor": {"dtype": "DT_FLOAT", "tensorShape": {"dim": [{"size": "1"}, {"size": "1"}, {"size": "1"}, {"size": "64"}]}}}}}, {"name": "StatefulPartitionedCall/CollaGANAffluentGenerator/instance_normalization_16/Reshape_1", "op": "Const", "attr": {"value": {"tensor": {"dtype": "DT_FLOAT", "tensorShape": {"dim": [{"size": "1"}, {"size": "1"}, {"size": "1"}, {"size": "64"}]}}}, "dtype": {"type": "DT_FLOAT"}}}, {"name": "StatefulPartitionedCall/CollaGANAffluentGenerator/tf.concat_2/concat/axis", "op": "Const", "attr": {"dtype": {"type": "DT_INT32"}, "value": {"tensor": {"dtype": "DT_INT32", "tensorShape": {}}}}}, {"name": "StatefulPartitionedCall/CollaGANAffluentGenerator/conv2d_125/Conv2D/ReadVariableOp", "op": "Const", "attr": {"value": {"tensor": {"dtype": "DT_FLOAT", "tensorShape": {"dim": [{"size": "3"}, {"size": "3"}, {"size": "8"}, {"size": "64"}]}}}, "dtype": {"type": "DT_FLOAT"}}}, {"name": "StatefulPartitionedCall/CollaGANAffluentGenerator/conv2d_125/BiasAdd/ReadVariableOp", "op": "Const", "attr": {"dtype": {"type": "DT_FLOAT"}, "value": {"tensor": {"dtype": "DT_FLOAT", "tensorShape": {"dim": [{"size": "64"}]}}}}}, {"name": "StatefulPartitionedCall/CollaGANAffluentGenerator/instance_normalization_16/moments/mean/reduction_indices", "op": "Const", "attr": {"dtype": {"type": "DT_INT32"}, "value": {"tensor": {"dtype": "DT_INT32", "tensorShape": {"dim": [{"size": "2"}]}}}}}, {"name": "StatefulPartitionedCall/CollaGANAffluentGenerator/instance_normalization_16/moments/variance/reduction_indices", "op": "Const", "attr": {"dtype": {"type": "DT_INT32"}, "value": {"tensor": {"dtype": "DT_INT32", "tensorShape": {"dim": [{"size": "2"}]}}}}}, {"name": "StatefulPartitionedCall/CollaGANAffluentGenerator/instance_normalization_16/batchnorm/add/y", "op": "Const", "attr": {"dtype": {"type": "DT_FLOAT"}, "value": {"tensor": {"dtype": "DT_FLOAT", "tensorShape": {}}}}}, {"name": "StatefulPartitionedCall/CollaGANAffluentGenerator/instance_normalization_16/Reshape", "op": "Const", "attr": {"dtype": {"type": "DT_FLOAT"}, "value": {"tensor": {"dtype": "DT_FLOAT", "tensorShape": {"dim": [{"size": "1"}, {"size": "1"}, {"size": "1"}, {"size": "64"}]}}}}}, {"name": "StatefulPartitionedCall/CollaGANAffluentGenerator/conv2d_126/Conv2D/ReadVariableOp", "op": "Const", "attr": {"dtype": {"type": "DT_FLOAT"}, "value": {"tensor": {"dtype": "DT_FLOAT", "tensorShape": {"dim": [{"size": "3"}, {"size": "3"}, {"size": "64"}, {"size": "64"}]}}}}}, {"name": "StatefulPartitionedCall/CollaGANAffluentGenerator/conv2d_126/BiasAdd/ReadVariableOp", "op": "Const", "attr": {"dtype": {"type": "DT_FLOAT"}, "value": {"tensor": {"dtype": "DT_FLOAT", "tensorShape": {"dim": [{"size": "64"}]}}}}}, {"name": "StatefulPartitionedCall/CollaGANAffluentGenerator/instance_normalization_17/moments/mean/reduction_indices", "op": "Const", "attr": {"dtype": {"type": "DT_INT32"}, "value": {"tensor": {"dtype": "DT_INT32", "tensorShape": {"dim": [{"size": "2"}]}}}}}, {"name": "StatefulPartitionedCall/CollaGANAffluentGenerator/instance_normalization_17/moments/variance/reduction_indices", "op": "Const", "attr": {"value": {"tensor": {"dtype": "DT_INT32", "tensorShape": {"dim": [{"size": "2"}]}}}, "dtype": {"type": "DT_INT32"}}}, {"name": "StatefulPartitionedCall/CollaGANAffluentGenerator/instance_normalization_17/batchnorm/add/y", "op": "Const", "attr": {"dtype": {"type": "DT_FLOAT"}, "value": {"tensor": {"dtype": "DT_FLOAT", "tensorShape": {}}}}}, {"name": "StatefulPartitionedCall/CollaGANAffluentGenerator/instance_normalization_17/Reshape", "op": "Const", "attr": {"dtype": {"type": "DT_FLOAT"}, "value": {"tensor": {"dtype": "DT_FLOAT", "tensorShape": {"dim": [{"size": "1"}, {"size": "1"}, {"size": "1"}, {"size": "64"}]}}}}}, {"name": "StatefulPartitionedCall/CollaGANAffluentGenerator/conv2d_127/Conv2D/ReadVariableOp", "op": "Const", "attr": {"dtype": {"type": "DT_FLOAT"}, "value": {"tensor": {"dtype": "DT_FLOAT", "tensorShape": {"dim": [{"size": "2"}, {"size": "2"}, {"size": "64"}, {"size": "128"}]}}}}}, {"name": "StatefulPartitionedCall/CollaGANAffluentGenerator/conv2d_128/Conv2D/ReadVariableOp", "op": "Const", "attr": {"dtype": {"type": "DT_FLOAT"}, "value": {"tensor": {"dtype": "DT_FLOAT", "tensorShape": {"dim": [{"size": "3"}, {"size": "3"}, {"size": "128"}, {"size": "128"}]}}}}}, {"name": "StatefulPartitionedCall/CollaGANAffluentGenerator/conv2d_128/BiasAdd/ReadVariableOp", "op": "Const", "attr": {"dtype": {"type": "DT_FLOAT"}, "value": {"tensor": {"dtype": "DT_FLOAT", "tensorShape": {"dim": [{"size": "128"}]}}}}}, {"name": "StatefulPartitionedCall/CollaGANAffluentGenerator/instance_normalization_18/moments/mean/reduction_indices", "op": "Const", "attr": {"dtype": {"type": "DT_INT32"}, "value": {"tensor": {"dtype": "DT_INT32", "tensorShape": {"dim": [{"size": "2"}]}}}}}, {"name": "StatefulPartitionedCall/CollaGANAffluentGenerator/instance_normalization_18/moments/variance/reduction_indices", "op": "Const", "attr": {"dtype": {"type": "DT_INT32"}, "value": {"tensor": {"dtype": "DT_INT32", "tensorShape": {"dim": [{"size": "2"}]}}}}}, {"name": "StatefulPartitionedCall/CollaGANAffluentGenerator/instance_normalization_18/batchnorm/add/y", "op": "Const", "attr": {"value": {"tensor": {"dtype": "DT_FLOAT", "tensorShape": {}}}, "dtype": {"type": "DT_FLOAT"}}}, {"name": "StatefulPartitionedCall/CollaGANAffluentGenerator/instance_normalization_18/Reshape", "op": "Const", "attr": {"dtype": {"type": "DT_FLOAT"}, "value": {"tensor": {"dtype": "DT_FLOAT", "tensorShape": {"dim": [{"size": "1"}, {"size": "1"}, {"size": "1"}, {"size": "128"}]}}}}}, {"name": "StatefulPartitionedCall/CollaGANAffluentGenerator/conv2d_129/Conv2D/ReadVariableOp", "op": "Const", "attr": {"dtype": {"type": "DT_FLOAT"}, "value": {"tensor": {"dtype": "DT_FLOAT", "tensorShape": {"dim": [{"size": "3"}, {"size": "3"}, {"size": "128"}, {"size": "128"}]}}}}}, {"name": "StatefulPartitionedCall/CollaGANAffluentGenerator/conv2d_129/BiasAdd/ReadVariableOp", "op": "Const", "attr": {"dtype": {"type": "DT_FLOAT"}, "value": {"tensor": {"dtype": "DT_FLOAT", "tensorShape": {"dim": [{"size": "128"}]}}}}}, {"name": "StatefulPartitionedCall/CollaGANAffluentGenerator/instance_normalization_19/moments/mean/reduction_indices", "op": "Const", "attr": {"value": {"tensor": {"dtype": "DT_INT32", "tensorShape": {"dim": [{"size": "2"}]}}}, "dtype": {"type": "DT_INT32"}}}, {"name": "StatefulPartitionedCall/CollaGANAffluentGenerator/instance_normalization_19/moments/variance/reduction_indices", "op": "Const", "attr": {"dtype": {"type": "DT_INT32"}, "value": {"tensor": {"dtype": "DT_INT32", "tensorShape": {"dim": [{"size": "2"}]}}}}}, {"name": "StatefulPartitionedCall/CollaGANAffluentGenerator/instance_normalization_19/batchnorm/add/y", "op": "Const", "attr": {"dtype": {"type": "DT_FLOAT"}, "value": {"tensor": {"dtype": "DT_FLOAT", "tensorShape": {}}}}}, {"name": "StatefulPartitionedCall/CollaGANAffluentGenerator/instance_normalization_19/Reshape", "op": "Const", "attr": {"dtype": {"type": "DT_FLOAT"}, "value": {"tensor": {"dtype": "DT_FLOAT", "tensorShape": {"dim": [{"size": "1"}, {"size": "1"}, {"size": "1"}, {"size": "128"}]}}}}}, {"name": "StatefulPartitionedCall/CollaGANAffluentGenerator/conv2d_130/Conv2D/ReadVariableOp", "op": "Const", "attr": {"dtype": {"type": "DT_FLOAT"}, "value": {"tensor": {"dtype": "DT_FLOAT", "tensorShape": {"dim": [{"size": "2"}, {"size": "2"}, {"size": "128"}, {"size": "256"}]}}}}}, {"name": "StatefulPartitionedCall/CollaGANAffluentGenerator/conv2d_131/Conv2D/ReadVariableOp", "op": "Const", "attr": {"dtype": {"type": "DT_FLOAT"}, "value": {"tensor": {"dtype": "DT_FLOAT", "tensorShape": {"dim": [{"size": "3"}, {"size": "3"}, {"size": "256"}, {"size": "256"}]}}}}}, {"name": "StatefulPartitionedCall/CollaGANAffluentGenerator/conv2d_131/BiasAdd/ReadVariableOp", "op": "Const", "attr": {"value": {"tensor": {"dtype": "DT_FLOAT", "tensorShape": {"dim": [{"size": "256"}]}}}, "dtype": {"type": "DT_FLOAT"}}}, {"name": "StatefulPartitionedCall/CollaGANAffluentGenerator/instance_normalization_20/moments/mean/reduction_indices", "op": "Const", "attr": {"dtype": {"type": "DT_INT32"}, "value": {"tensor": {"dtype": "DT_INT32", "tensorShape": {"dim": [{"size": "2"}]}}}}}, {"name": "StatefulPartitionedCall/CollaGANAffluentGenerator/instance_normalization_20/moments/variance/reduction_indices", "op": "Const", "attr": {"dtype": {"type": "DT_INT32"}, "value": {"tensor": {"dtype": "DT_INT32", "tensorShape": {"dim": [{"size": "2"}]}}}}}, {"name": "StatefulPartitionedCall/CollaGANAffluentGenerator/instance_normalization_20/batchnorm/add/y", "op": "Const", "attr": {"dtype": {"type": "DT_FLOAT"}, "value": {"tensor": {"dtype": "DT_FLOAT", "tensorShape": {}}}}}, {"name": "StatefulPartitionedCall/CollaGANAffluentGenerator/instance_normalization_20/Reshape", "op": "Const", "attr": {"dtype": {"type": "DT_FLOAT"}, "value": {"tensor": {"dtype": "DT_FLOAT", "tensorShape": {"dim": [{"size": "1"}, {"size": "1"}, {"size": "1"}, {"size": "256"}]}}}}}, {"name": "StatefulPartitionedCall/CollaGANAffluentGenerator/conv2d_132/Conv2D/ReadVariableOp", "op": "Const", "attr": {"dtype": {"type": "DT_FLOAT"}, "value": {"tensor": {"dtype": "DT_FLOAT", "tensorShape": {"dim": [{"size": "3"}, {"size": "3"}, {"size": "256"}, {"size": "256"}]}}}}}, {"name": "StatefulPartitionedCall/CollaGANAffluentGenerator/conv2d_132/BiasAdd/ReadVariableOp", "op": "Const", "attr": {"dtype": {"type": "DT_FLOAT"}, "value": {"tensor": {"dtype": "DT_FLOAT", "tensorShape": {"dim": [{"size": "256"}]}}}}}, {"name": "StatefulPartitionedCall/CollaGANAffluentGenerator/instance_normalization_21/moments/mean/reduction_indices", "op": "Const", "attr": {"dtype": {"type": "DT_INT32"}, "value": {"tensor": {"dtype": "DT_INT32", "tensorShape": {"dim": [{"size": "2"}]}}}}}, {"name": "StatefulPartitionedCall/CollaGANAffluentGenerator/instance_normalization_21/moments/variance/reduction_indices", "op": "Const", "attr": {"value": {"tensor": {"dtype": "DT_INT32", "tensorShape": {"dim": [{"size": "2"}]}}}, "dtype": {"type": "DT_INT32"}}}, {"name": "StatefulPartitionedCall/CollaGANAffluentGenerator/instance_normalization_21/batchnorm/add/y", "op": "Const", "attr": {"dtype": {"type": "DT_FLOAT"}, "value": {"tensor": {"dtype": "DT_FLOAT", "tensorShape": {}}}}}, {"name": "StatefulPartitionedCall/CollaGANAffluentGenerator/instance_normalization_21/Reshape", "op": "Const", "attr": {"value": {"tensor": {"dtype": "DT_FLOAT", "tensorShape": {"dim": [{"size": "1"}, {"size": "1"}, {"size": "1"}, {"size": "256"}]}}}, "dtype": {"type": "DT_FLOAT"}}}, {"name": "StatefulPartitionedCall/CollaGANAffluentGenerator/conv2d_133/Conv2D/ReadVariableOp", "op": "Const", "attr": {"dtype": {"type": "DT_FLOAT"}, "value": {"tensor": {"dtype": "DT_FLOAT", "tensorShape": {"dim": [{"size": "2"}, {"size": "2"}, {"size": "256"}, {"size": "512"}]}}}}}, {"name": "StatefulPartitionedCall/CollaGANAffluentGenerator/conv2d_134/Conv2D/ReadVariableOp", "op": "Const", "attr": {"value": {"tensor": {"dtype": "DT_FLOAT", "tensorShape": {"dim": [{"size": "3"}, {"size": "3"}, {"size": "512"}, {"size": "512"}]}}}, "dtype": {"type": "DT_FLOAT"}}}, {"name": "StatefulPartitionedCall/CollaGANAffluentGenerator/conv2d_134/BiasAdd/ReadVariableOp", "op": "Const", "attr": {"dtype": {"type": "DT_FLOAT"}, "value": {"tensor": {"dtype": "DT_FLOAT", "tensorShape": {"dim": [{"size": "512"}]}}}}}, {"name": "StatefulPartitionedCall/CollaGANAffluentGenerator/instance_normalization_22/moments/mean/reduction_indices", "op": "Const", "attr": {"dtype": {"type": "DT_INT32"}, "value": {"tensor": {"dtype": "DT_INT32", "tensorShape": {"dim": [{"size": "2"}]}}}}}, {"name": "StatefulPartitionedCall/CollaGANAffluentGenerator/instance_normalization_22/moments/variance/reduction_indices", "op": "Const", "attr": {"dtype": {"type": "DT_INT32"}, "value": {"tensor": {"dtype": "DT_INT32", "tensorShape": {"dim": [{"size": "2"}]}}}}}, {"name": "StatefulPartitionedCall/CollaGANAffluentGenerator/instance_normalization_22/batchnorm/add/y", "op": "Const", "attr": {"dtype": {"type": "DT_FLOAT"}, "value": {"tensor": {"dtype": "DT_FLOAT", "tensorShape": {}}}}}, {"name": "StatefulPartitionedCall/CollaGANAffluentGenerator/instance_normalization_22/Reshape", "op": "Const", "attr": {"dtype": {"type": "DT_FLOAT"}, "value": {"tensor": {"dtype": "DT_FLOAT", "tensorShape": {"dim": [{"size": "1"}, {"size": "1"}, {"size": "1"}, {"size": "512"}]}}}}}, {"name": "StatefulPartitionedCall/CollaGANAffluentGenerator/conv2d_135/Conv2D/ReadVariableOp", "op": "Const", "attr": {"value": {"tensor": {"dtype": "DT_FLOAT", "tensorShape": {"dim": [{"size": "3"}, {"size": "3"}, {"size": "512"}, {"size": "512"}]}}}, "dtype": {"type": "DT_FLOAT"}}}, {"name": "StatefulPartitionedCall/CollaGANAffluentGenerator/conv2d_135/BiasAdd/ReadVariableOp", "op": "Const", "attr": {"dtype": {"type": "DT_FLOAT"}, "value": {"tensor": {"dtype": "DT_FLOAT", "tensorShape": {"dim": [{"size": "512"}]}}}}}, {"name": "StatefulPartitionedCall/CollaGANAffluentGenerator/instance_normalization_23/moments/mean/reduction_indices", "op": "Const", "attr": {"dtype": {"type": "DT_INT32"}, "value": {"tensor": {"dtype": "DT_INT32", "tensorShape": {"dim": [{"size": "2"}]}}}}}, {"name": "StatefulPartitionedCall/CollaGANAffluentGenerator/instance_normalization_23/moments/variance/reduction_indices", "op": "Const", "attr": {"dtype": {"type": "DT_INT32"}, "value": {"tensor": {"dtype": "DT_INT32", "tensorShape": {"dim": [{"size": "2"}]}}}}}, {"name": "StatefulPartitionedCall/CollaGANAffluentGenerator/instance_normalization_23/batchnorm/add/y", "op": "Const", "attr": {"dtype": {"type": "DT_FLOAT"}, "value": {"tensor": {"dtype": "DT_FLOAT", "tensorShape": {}}}}}, {"name": "StatefulPartitionedCall/CollaGANAffluentGenerator/instance_normalization_23/Reshape", "op": "Const", "attr": {"dtype": {"type": "DT_FLOAT"}, "value": {"tensor": {"dtype": "DT_FLOAT", "tensorShape": {"dim": [{"size": "1"}, {"size": "1"}, {"size": "1"}, {"size": "512"}]}}}}}, {"name": "StatefulPartitionedCall/CollaGANAffluentGenerator/conv2d_136/Conv2D/ReadVariableOp", "op": "Const", "attr": {"value": {"tensor": {"dtype": "DT_FLOAT", "tensorShape": {"dim": [{"size": "2"}, {"size": "2"}, {"size": "512"}, {"size": "1024"}]}}}, "dtype": {"type": "DT_FLOAT"}}}, {"name": "StatefulPartitionedCall/CollaGANAffluentGenerator/instance_normalization_31/Reshape_1", "op": "Const", "attr": {"dtype": {"type": "DT_FLOAT"}, "value": {"tensor": {"dtype": "DT_FLOAT", "tensorShape": {"dim": [{"size": "1"}, {"size": "1"}, {"size": "1"}, {"size": "512"}]}}}}}, {"name": "StatefulPartitionedCall/CollaGANAffluentGenerator/instance_normalization_30/Reshape_1", "op": "Const", "attr": {"value": {"tensor": {"dtype": "DT_FLOAT", "tensorShape": {"dim": [{"size": "1"}, {"size": "1"}, {"size": "1"}, {"size": "512"}]}}}, "dtype": {"type": "DT_FLOAT"}}}, {"name": "StatefulPartitionedCall/CollaGANAffluentGenerator/instance_normalization_29/Reshape_1", "op": "Const", "attr": {"value": {"tensor": {"dtype": "DT_FLOAT", "tensorShape": {"dim": [{"size": "1"}, {"size": "1"}, {"size": "1"}, {"size": "256"}]}}}, "dtype": {"type": "DT_FLOAT"}}}, {"name": "StatefulPartitionedCall/CollaGANAffluentGenerator/instance_normalization_28/Reshape_1", "op": "Const", "attr": {"dtype": {"type": "DT_FLOAT"}, "value": {"tensor": {"dtype": "DT_FLOAT", "tensorShape": {"dim": [{"size": "1"}, {"size": "1"}, {"size": "1"}, {"size": "256"}]}}}}}, {"name": "StatefulPartitionedCall/CollaGANAffluentGenerator/instance_normalization_27/Reshape_1", "op": "Const", "attr": {"dtype": {"type": "DT_FLOAT"}, "value": {"tensor": {"dtype": "DT_FLOAT", "tensorShape": {"dim": [{"size": "1"}, {"size": "1"}, {"size": "1"}, {"size": "128"}]}}}}}, {"name": "StatefulPartitionedCall/CollaGANAffluentGenerator/instance_normalization_26/Reshape_1", "op": "Const", "attr": {"dtype": {"type": "DT_FLOAT"}, "value": {"tensor": {"dtype": "DT_FLOAT", "tensorShape": {"dim": [{"size": "1"}, {"size": "1"}, {"size": "1"}, {"size": "128"}]}}}}}, {"name": "StatefulPartitionedCall/CollaGANAffluentGenerator/instance_normalization_25/Reshape_1", "op": "Const", "attr": {"dtype": {"type": "DT_FLOAT"}, "value": {"tensor": {"dtype": "DT_FLOAT", "tensorShape": {"dim": [{"size": "1"}, {"size": "1"}, {"size": "1"}, {"size": "64"}]}}}}}, {"name": "StatefulPartitionedCall/CollaGANAffluentGenerator/instance_normalization_24/Reshape_1", "op": "Const", "attr": {"dtype": {"type": "DT_FLOAT"}, "value": {"tensor": {"dtype": "DT_FLOAT", "tensorShape": {"dim": [{"size": "1"}, {"size": "1"}, {"size": "1"}, {"size": "64"}]}}}}}, {"name": "StatefulPartitionedCall/CollaGANAffluentGenerator/tile_layer/ExpandDims/dim", "op": "Const", "attr": {"dtype": {"type": "DT_INT32"}, "value": {"tensor": {"dtype": "DT_INT32", "tensorShape": {}}}}}, {"name": "StatefulPartitionedCall/CollaGANAffluentGenerator/tile_layer/TileLayer/multiples", "op": "Const", "attr": {"value": {"tensor": {"dtype": "DT_INT32", "tensorShape": {"dim": [{"size": "3"}]}}}, "dtype": {"type": "DT_INT32"}}}, {"name": "StatefulPartitionedCall/CollaGANAffluentGenerator/tile_layer_1/ExpandDims/dim", "op": "Const", "attr": {"value": {"tensor": {"dtype": "DT_INT32", "tensorShape": {}}}, "dtype": {"type": "DT_INT32"}}}, {"name": "StatefulPartitionedCall/CollaGANAffluentGenerator/tile_layer_1/TileLayer/multiples", "op": "Const", "attr": {"dtype": {"type": "DT_INT32"}, "value": {"tensor": {"dtype": "DT_INT32", "tensorShape": {"dim": [{"size": "4"}]}}}}}, {"name": "StatefulPartitionedCall/CollaGANAffluentGenerator/tf.concat_3/concat/axis", "op": "Const", "attr": {"value": {"tensor": {"dtype": "DT_INT32", "tensorShape": {}}}, "dtype": {"type": "DT_INT32"}}}, {"name": "StatefulPartitionedCall/CollaGANAffluentGenerator/conv2d_137/Conv2D/ReadVariableOp", "op": "Const", "attr": {"value": {"tensor": {"dtype": "DT_FLOAT", "tensorShape": {"dim": [{"size": "3"}, {"size": "3"}, {"size": "8"}, {"size": "64"}]}}}, "dtype": {"type": "DT_FLOAT"}}}, {"name": "StatefulPartitionedCall/CollaGANAffluentGenerator/conv2d_137/BiasAdd/ReadVariableOp", "op": "Const", "attr": {"dtype": {"type": "DT_FLOAT"}, "value": {"tensor": {"dtype": "DT_FLOAT", "tensorShape": {"dim": [{"size": "64"}]}}}}}, {"name": "StatefulPartitionedCall/CollaGANAffluentGenerator/instance_normalization_24/moments/mean/reduction_indices", "op": "Const", "attr": {"dtype": {"type": "DT_INT32"}, "value": {"tensor": {"dtype": "DT_INT32", "tensorShape": {"dim": [{"size": "2"}]}}}}}, {"name": "StatefulPartitionedCall/CollaGANAffluentGenerator/instance_normalization_24/moments/variance/reduction_indices", "op": "Const", "attr": {"dtype": {"type": "DT_INT32"}, "value": {"tensor": {"dtype": "DT_INT32", "tensorShape": {"dim": [{"size": "2"}]}}}}}, {"name": "StatefulPartitionedCall/CollaGANAffluentGenerator/instance_normalization_24/batchnorm/add/y", "op": "Const", "attr": {"value": {"tensor": {"dtype": "DT_FLOAT", "tensorShape": {}}}, "dtype": {"type": "DT_FLOAT"}}}, {"name": "StatefulPartitionedCall/CollaGANAffluentGenerator/instance_normalization_24/Reshape", "op": "Const", "attr": {"value": {"tensor": {"dtype": "DT_FLOAT", "tensorShape": {"dim": [{"size": "1"}, {"size": "1"}, {"size": "1"}, {"size": "64"}]}}}, "dtype": {"type": "DT_FLOAT"}}}, {"name": "StatefulPartitionedCall/CollaGANAffluentGenerator/conv2d_138/Conv2D/ReadVariableOp", "op": "Const", "attr": {"dtype": {"type": "DT_FLOAT"}, "value": {"tensor": {"dtype": "DT_FLOAT", "tensorShape": {"dim": [{"size": "3"}, {"size": "3"}, {"size": "64"}, {"size": "64"}]}}}}}, {"name": "StatefulPartitionedCall/CollaGANAffluentGenerator/conv2d_138/BiasAdd/ReadVariableOp", "op": "Const", "attr": {"value": {"tensor": {"dtype": "DT_FLOAT", "tensorShape": {"dim": [{"size": "64"}]}}}, "dtype": {"type": "DT_FLOAT"}}}, {"name": "StatefulPartitionedCall/CollaGANAffluentGenerator/instance_normalization_25/moments/mean/reduction_indices", "op": "Const", "attr": {"dtype": {"type": "DT_INT32"}, "value": {"tensor": {"dtype": "DT_INT32", "tensorShape": {"dim": [{"size": "2"}]}}}}}, {"name": "StatefulPartitionedCall/CollaGANAffluentGenerator/instance_normalization_25/moments/variance/reduction_indices", "op": "Const", "attr": {"value": {"tensor": {"dtype": "DT_INT32", "tensorShape": {"dim": [{"size": "2"}]}}}, "dtype": {"type": "DT_INT32"}}}, {"name": "StatefulPartitionedCall/CollaGANAffluentGenerator/instance_normalization_25/batchnorm/add/y", "op": "Const", "attr": {"value": {"tensor": {"dtype": "DT_FLOAT", "tensorShape": {}}}, "dtype": {"type": "DT_FLOAT"}}}, {"name": "StatefulPartitionedCall/CollaGANAffluentGenerator/instance_normalization_25/Reshape", "op": "Const", "attr": {"dtype": {"type": "DT_FLOAT"}, "value": {"tensor": {"dtype": "DT_FLOAT", "tensorShape": {"dim": [{"size": "1"}, {"size": "1"}, {"size": "1"}, {"size": "64"}]}}}}}, {"name": "StatefulPartitionedCall/CollaGANAffluentGenerator/conv2d_139/Conv2D/ReadVariableOp", "op": "Const", "attr": {"dtype": {"type": "DT_FLOAT"}, "value": {"tensor": {"dtype": "DT_FLOAT", "tensorShape": {"dim": [{"size": "2"}, {"size": "2"}, {"size": "64"}, {"size": "128"}]}}}}}, {"name": "StatefulPartitionedCall/CollaGANAffluentGenerator/conv2d_140/Conv2D/ReadVariableOp", "op": "Const", "attr": {"value": {"tensor": {"dtype": "DT_FLOAT", "tensorShape": {"dim": [{"size": "3"}, {"size": "3"}, {"size": "128"}, {"size": "128"}]}}}, "dtype": {"type": "DT_FLOAT"}}}, {"name": "StatefulPartitionedCall/CollaGANAffluentGenerator/conv2d_140/BiasAdd/ReadVariableOp", "op": "Const", "attr": {"dtype": {"type": "DT_FLOAT"}, "value": {"tensor": {"dtype": "DT_FLOAT", "tensorShape": {"dim": [{"size": "128"}]}}}}}, {"name": "StatefulPartitionedCall/CollaGANAffluentGenerator/instance_normalization_26/moments/mean/reduction_indices", "op": "Const", "attr": {"dtype": {"type": "DT_INT32"}, "value": {"tensor": {"dtype": "DT_INT32", "tensorShape": {"dim": [{"size": "2"}]}}}}}, {"name": "StatefulPartitionedCall/CollaGANAffluentGenerator/instance_normalization_26/moments/variance/reduction_indices", "op": "Const", "attr": {"dtype": {"type": "DT_INT32"}, "value": {"tensor": {"dtype": "DT_INT32", "tensorShape": {"dim": [{"size": "2"}]}}}}}, {"name": "StatefulPartitionedCall/CollaGANAffluentGenerator/instance_normalization_26/batchnorm/add/y", "op": "Const", "attr": {"dtype": {"type": "DT_FLOAT"}, "value": {"tensor": {"dtype": "DT_FLOAT", "tensorShape": {}}}}}, {"name": "StatefulPartitionedCall/CollaGANAffluentGenerator/instance_normalization_26/Reshape", "op": "Const", "attr": {"value": {"tensor": {"dtype": "DT_FLOAT", "tensorShape": {"dim": [{"size": "1"}, {"size": "1"}, {"size": "1"}, {"size": "128"}]}}}, "dtype": {"type": "DT_FLOAT"}}}, {"name": "StatefulPartitionedCall/CollaGANAffluentGenerator/conv2d_141/Conv2D/ReadVariableOp", "op": "Const", "attr": {"dtype": {"type": "DT_FLOAT"}, "value": {"tensor": {"dtype": "DT_FLOAT", "tensorShape": {"dim": [{"size": "3"}, {"size": "3"}, {"size": "128"}, {"size": "128"}]}}}}}, {"name": "StatefulPartitionedCall/CollaGANAffluentGenerator/conv2d_141/BiasAdd/ReadVariableOp", "op": "Const", "attr": {"dtype": {"type": "DT_FLOAT"}, "value": {"tensor": {"dtype": "DT_FLOAT", "tensorShape": {"dim": [{"size": "128"}]}}}}}, {"name": "StatefulPartitionedCall/CollaGANAffluentGenerator/instance_normalization_27/moments/mean/reduction_indices", "op": "Const", "attr": {"dtype": {"type": "DT_INT32"}, "value": {"tensor": {"dtype": "DT_INT32", "tensorShape": {"dim": [{"size": "2"}]}}}}}, {"name": "StatefulPartitionedCall/CollaGANAffluentGenerator/instance_normalization_27/moments/variance/reduction_indices", "op": "Const", "attr": {"dtype": {"type": "DT_INT32"}, "value": {"tensor": {"dtype": "DT_INT32", "tensorShape": {"dim": [{"size": "2"}]}}}}}, {"name": "StatefulPartitionedCall/CollaGANAffluentGenerator/instance_normalization_27/batchnorm/add/y", "op": "Const", "attr": {"value": {"tensor": {"dtype": "DT_FLOAT", "tensorShape": {}}}, "dtype": {"type": "DT_FLOAT"}}}, {"name": "StatefulPartitionedCall/CollaGANAffluentGenerator/instance_normalization_27/Reshape", "op": "Const", "attr": {"value": {"tensor": {"dtype": "DT_FLOAT", "tensorShape": {"dim": [{"size": "1"}, {"size": "1"}, {"size": "1"}, {"size": "128"}]}}}, "dtype": {"type": "DT_FLOAT"}}}, {"name": "StatefulPartitionedCall/CollaGANAffluentGenerator/conv2d_142/Conv2D/ReadVariableOp", "op": "Const", "attr": {"value": {"tensor": {"dtype": "DT_FLOAT", "tensorShape": {"dim": [{"size": "2"}, {"size": "2"}, {"size": "128"}, {"size": "256"}]}}}, "dtype": {"type": "DT_FLOAT"}}}, {"name": "StatefulPartitionedCall/CollaGANAffluentGenerator/conv2d_143/Conv2D/ReadVariableOp", "op": "Const", "attr": {"value": {"tensor": {"dtype": "DT_FLOAT", "tensorShape": {"dim": [{"size": "3"}, {"size": "3"}, {"size": "256"}, {"size": "256"}]}}}, "dtype": {"type": "DT_FLOAT"}}}, {"name": "StatefulPartitionedCall/CollaGANAffluentGenerator/conv2d_143/BiasAdd/ReadVariableOp", "op": "Const", "attr": {"dtype": {"type": "DT_FLOAT"}, "value": {"tensor": {"dtype": "DT_FLOAT", "tensorShape": {"dim": [{"size": "256"}]}}}}}, {"name": "StatefulPartitionedCall/CollaGANAffluentGenerator/instance_normalization_28/moments/mean/reduction_indices", "op": "Const", "attr": {"value": {"tensor": {"dtype": "DT_INT32", "tensorShape": {"dim": [{"size": "2"}]}}}, "dtype": {"type": "DT_INT32"}}}, {"name": "StatefulPartitionedCall/CollaGANAffluentGenerator/instance_normalization_28/moments/variance/reduction_indices", "op": "Const", "attr": {"value": {"tensor": {"dtype": "DT_INT32", "tensorShape": {"dim": [{"size": "2"}]}}}, "dtype": {"type": "DT_INT32"}}}, {"name": "StatefulPartitionedCall/CollaGANAffluentGenerator/instance_normalization_28/batchnorm/add/y", "op": "Const", "attr": {"dtype": {"type": "DT_FLOAT"}, "value": {"tensor": {"dtype": "DT_FLOAT", "tensorShape": {}}}}}, {"name": "StatefulPartitionedCall/CollaGANAffluentGenerator/instance_normalization_28/Reshape", "op": "Const", "attr": {"dtype": {"type": "DT_FLOAT"}, "value": {"tensor": {"dtype": "DT_FLOAT", "tensorShape": {"dim": [{"size": "1"}, {"size": "1"}, {"size": "1"}, {"size": "256"}]}}}}}, {"name": "StatefulPartitionedCall/CollaGANAffluentGenerator/conv2d_144/Conv2D/ReadVariableOp", "op": "Const", "attr": {"dtype": {"type": "DT_FLOAT"}, "value": {"tensor": {"dtype": "DT_FLOAT", "tensorShape": {"dim": [{"size": "3"}, {"size": "3"}, {"size": "256"}, {"size": "256"}]}}}}}, {"name": "StatefulPartitionedCall/CollaGANAffluentGenerator/conv2d_144/BiasAdd/ReadVariableOp", "op": "Const", "attr": {"value": {"tensor": {"dtype": "DT_FLOAT", "tensorShape": {"dim": [{"size": "256"}]}}}, "dtype": {"type": "DT_FLOAT"}}}, {"name": "StatefulPartitionedCall/CollaGANAffluentGenerator/instance_normalization_29/moments/mean/reduction_indices", "op": "Const", "attr": {"dtype": {"type": "DT_INT32"}, "value": {"tensor": {"dtype": "DT_INT32", "tensorShape": {"dim": [{"size": "2"}]}}}}}, {"name": "StatefulPartitionedCall/CollaGANAffluentGenerator/instance_normalization_29/moments/variance/reduction_indices", "op": "Const", "attr": {"value": {"tensor": {"dtype": "DT_INT32", "tensorShape": {"dim": [{"size": "2"}]}}}, "dtype": {"type": "DT_INT32"}}}, {"name": "StatefulPartitionedCall/CollaGANAffluentGenerator/instance_normalization_29/batchnorm/add/y", "op": "Const", "attr": {"value": {"tensor": {"dtype": "DT_FLOAT", "tensorShape": {}}}, "dtype": {"type": "DT_FLOAT"}}}, {"name": "StatefulPartitionedCall/CollaGANAffluentGenerator/instance_normalization_29/Reshape", "op": "Const", "attr": {"value": {"tensor": {"dtype": "DT_FLOAT", "tensorShape": {"dim": [{"size": "1"}, {"size": "1"}, {"size": "1"}, {"size": "256"}]}}}, "dtype": {"type": "DT_FLOAT"}}}, {"name": "StatefulPartitionedCall/CollaGANAffluentGenerator/conv2d_145/Conv2D/ReadVariableOp", "op": "Const", "attr": {"value": {"tensor": {"dtype": "DT_FLOAT", "tensorShape": {"dim": [{"size": "2"}, {"size": "2"}, {"size": "256"}, {"size": "512"}]}}}, "dtype": {"type": "DT_FLOAT"}}}, {"name": "StatefulPartitionedCall/CollaGANAffluentGenerator/conv2d_146/Conv2D/ReadVariableOp", "op": "Const", "attr": {"value": {"tensor": {"dtype": "DT_FLOAT", "tensorShape": {"dim": [{"size": "3"}, {"size": "3"}, {"size": "512"}, {"size": "512"}]}}}, "dtype": {"type": "DT_FLOAT"}}}, {"name": "StatefulPartitionedCall/CollaGANAffluentGenerator/conv2d_146/BiasAdd/ReadVariableOp", "op": "Const", "attr": {"dtype": {"type": "DT_FLOAT"}, "value": {"tensor": {"dtype": "DT_FLOAT", "tensorShape": {"dim": [{"size": "512"}]}}}}}, {"name": "StatefulPartitionedCall/CollaGANAffluentGenerator/instance_normalization_30/moments/mean/reduction_indices", "op": "Const", "attr": {"value": {"tensor": {"dtype": "DT_INT32", "tensorShape": {"dim": [{"size": "2"}]}}}, "dtype": {"type": "DT_INT32"}}}, {"name": "StatefulPartitionedCall/CollaGANAffluentGenerator/instance_normalization_30/moments/variance/reduction_indices", "op": "Const", "attr": {"dtype": {"type": "DT_INT32"}, "value": {"tensor": {"dtype": "DT_INT32", "tensorShape": {"dim": [{"size": "2"}]}}}}}, {"name": "StatefulPartitionedCall/CollaGANAffluentGenerator/instance_normalization_30/batchnorm/add/y", "op": "Const", "attr": {"value": {"tensor": {"dtype": "DT_FLOAT", "tensorShape": {}}}, "dtype": {"type": "DT_FLOAT"}}}, {"name": "StatefulPartitionedCall/CollaGANAffluentGenerator/instance_normalization_30/Reshape", "op": "Const", "attr": {"value": {"tensor": {"dtype": "DT_FLOAT", "tensorShape": {"dim": [{"size": "1"}, {"size": "1"}, {"size": "1"}, {"size": "512"}]}}}, "dtype": {"type": "DT_FLOAT"}}}, {"name": "StatefulPartitionedCall/CollaGANAffluentGenerator/conv2d_147/Conv2D/ReadVariableOp", "op": "Const", "attr": {"value": {"tensor": {"dtype": "DT_FLOAT", "tensorShape": {"dim": [{"size": "3"}, {"size": "3"}, {"size": "512"}, {"size": "512"}]}}}, "dtype": {"type": "DT_FLOAT"}}}, {"name": "StatefulPartitionedCall/CollaGANAffluentGenerator/conv2d_147/BiasAdd/ReadVariableOp", "op": "Const", "attr": {"dtype": {"type": "DT_FLOAT"}, "value": {"tensor": {"dtype": "DT_FLOAT", "tensorShape": {"dim": [{"size": "512"}]}}}}}, {"name": "StatefulPartitionedCall/CollaGANAffluentGenerator/instance_normalization_31/moments/mean/reduction_indices", "op": "Const", "attr": {"value": {"tensor": {"dtype": "DT_INT32", "tensorShape": {"dim": [{"size": "2"}]}}}, "dtype": {"type": "DT_INT32"}}}, {"name": "StatefulPartitionedCall/CollaGANAffluentGenerator/instance_normalization_31/moments/variance/reduction_indices", "op": "Const", "attr": {"dtype": {"type": "DT_INT32"}, "value": {"tensor": {"dtype": "DT_INT32", "tensorShape": {"dim": [{"size": "2"}]}}}}}, {"name": "StatefulPartitionedCall/CollaGANAffluentGenerator/instance_normalization_31/batchnorm/add/y", "op": "Const", "attr": {"dtype": {"type": "DT_FLOAT"}, "value": {"tensor": {"dtype": "DT_FLOAT", "tensorShape": {}}}}}, {"name": "StatefulPartitionedCall/CollaGANAffluentGenerator/instance_normalization_31/Reshape", "op": "Const", "attr": {"value": {"tensor": {"dtype": "DT_FLOAT", "tensorShape": {"dim": [{"size": "1"}, {"size": "1"}, {"size": "1"}, {"size": "512"}]}}}, "dtype": {"type": "DT_FLOAT"}}}, {"name": "StatefulPartitionedCall/CollaGANAffluentGenerator/conv2d_148/Conv2D/ReadVariableOp", "op": "Const", "attr": {"dtype": {"type": "DT_FLOAT"}, "value": {"tensor": {"dtype": "DT_FLOAT", "tensorShape": {"dim": [{"size": "2"}, {"size": "2"}, {"size": "512"}, {"size": "1024"}]}}}}}, {"name": "StatefulPartitionedCall/CollaGANAffluentGenerator/tf.concat_4/concat/axis", "op": "Const", "attr": {"dtype": {"type": "DT_INT32"}, "value": {"tensor": {"dtype": "DT_INT32", "tensorShape": {}}}}}, {"name": "StatefulPartitionedCall/CollaGANAffluentGenerator/conv2d_149/Conv2D/ReadVariableOp", "op": "Const", "attr": {"dtype": {"type": "DT_FLOAT"}, "value": {"tensor": {"dtype": "DT_FLOAT", "tensorShape": {"dim": [{"size": "3"}, {"size": "3"}, {"size": "4096"}, {"size": "1024"}]}}}}}, {"name": "StatefulPartitionedCall/CollaGANAffluentGenerator/conv2d_149/BiasAdd/ReadVariableOp", "op": "Const", "attr": {"dtype": {"type": "DT_FLOAT"}, "value": {"tensor": {"dtype": "DT_FLOAT", "tensorShape": {"dim": [{"size": "1024"}]}}}}}, {"name": "StatefulPartitionedCall/CollaGANAffluentGenerator/instance_normalization_32/moments/mean/reduction_indices", "op": "Const", "attr": {"dtype": {"type": "DT_INT32"}, "value": {"tensor": {"dtype": "DT_INT32", "tensorShape": {"dim": [{"size": "2"}]}}}}}, {"name": "StatefulPartitionedCall/CollaGANAffluentGenerator/instance_normalization_32/moments/variance/reduction_indices", "op": "Const", "attr": {"value": {"tensor": {"dtype": "DT_INT32", "tensorShape": {"dim": [{"size": "2"}]}}}, "dtype": {"type": "DT_INT32"}}}, {"name": "StatefulPartitionedCall/CollaGANAffluentGenerator/instance_normalization_32/batchnorm/add/y", "op": "Const", "attr": {"value": {"tensor": {"dtype": "DT_FLOAT", "tensorShape": {}}}, "dtype": {"type": "DT_FLOAT"}}}, {"name": "StatefulPartitionedCall/CollaGANAffluentGenerator/instance_normalization_32/Reshape", "op": "Const", "attr": {"dtype": {"type": "DT_FLOAT"}, "value": {"tensor": {"dtype": "DT_FLOAT", "tensorShape": {"dim": [{"size": "1"}, {"size": "1"}, {"size": "1"}, {"size": "1024"}]}}}}}, {"name": "StatefulPartitionedCall/CollaGANAffluentGenerator/conv2d_150/Conv2D/ReadVariableOp", "op": "Const", "attr": {"dtype": {"type": "DT_FLOAT"}, "value": {"tensor": {"dtype": "DT_FLOAT", "tensorShape": {"dim": [{"size": "3"}, {"size": "3"}, {"size": "1024"}, {"size": "1024"}]}}}}}, {"name": "StatefulPartitionedCall/CollaGANAffluentGenerator/conv2d_150/BiasAdd/ReadVariableOp", "op": "Const", "attr": {"value": {"tensor": {"dtype": "DT_FLOAT", "tensorShape": {"dim": [{"size": "1024"}]}}}, "dtype": {"type": "DT_FLOAT"}}}, {"name": "StatefulPartitionedCall/CollaGANAffluentGenerator/instance_normalization_33/moments/mean/reduction_indices", "op": "Const", "attr": {"value": {"tensor": {"dtype": "DT_INT32", "tensorShape": {"dim": [{"size": "2"}]}}}, "dtype": {"type": "DT_INT32"}}}, {"name": "StatefulPartitionedCall/CollaGANAffluentGenerator/instance_normalization_33/moments/variance/reduction_indices", "op": "Const", "attr": {"value": {"tensor": {"dtype": "DT_INT32", "tensorShape": {"dim": [{"size": "2"}]}}}, "dtype": {"type": "DT_INT32"}}}, {"name": "StatefulPartitionedCall/CollaGANAffluentGenerator/instance_normalization_33/batchnorm/add/y", "op": "Const", "attr": {"value": {"tensor": {"dtype": "DT_FLOAT", "tensorShape": {}}}, "dtype": {"type": "DT_FLOAT"}}}, {"name": "StatefulPartitionedCall/CollaGANAffluentGenerator/instance_normalization_33/Reshape", "op": "Const", "attr": {"value": {"tensor": {"dtype": "DT_FLOAT", "tensorShape": {"dim": [{"size": "1"}, {"size": "1"}, {"size": "1"}, {"size": "1024"}]}}}, "dtype": {"type": "DT_FLOAT"}}}, {"name": "StatefulPartitionedCall/CollaGANAffluentGenerator/conv2d_transpose/BiasAdd/ReadVariableOp", "op": "Const", "attr": {"value": {"tensor": {"dtype": "DT_FLOAT", "tensorShape": {"dim": [{"size": "512"}]}}}, "dtype": {"type": "DT_FLOAT"}}}, {"name": "StatefulPartitionedCall/CollaGANAffluentGenerator/tf.concat_6/concat/axis", "op": "Const", "attr": {"value": {"tensor": {"dtype": "DT_INT32", "tensorShape": {}}}, "dtype": {"type": "DT_INT32"}}}, {"name": "StatefulPartitionedCall/CollaGANAffluentGenerator/conv2d_151/Conv2D/ReadVariableOp", "op": "Const", "attr": {"value": {"tensor": {"dtype": "DT_FLOAT", "tensorShape": {"dim": [{"size": "3"}, {"size": "3"}, {"size": "2560"}, {"size": "512"}]}}}, "dtype": {"type": "DT_FLOAT"}}}, {"name": "StatefulPartitionedCall/CollaGANAffluentGenerator/conv2d_151/BiasAdd/ReadVariableOp", "op": "Const", "attr": {"value": {"tensor": {"dtype": "DT_FLOAT", "tensorShape": {"dim": [{"size": "512"}]}}}, "dtype": {"type": "DT_FLOAT"}}}, {"name": "StatefulPartitionedCall/CollaGANAffluentGenerator/instance_normalization_34/moments/mean/reduction_indices", "op": "Const", "attr": {"value": {"tensor": {"dtype": "DT_INT32", "tensorShape": {"dim": [{"size": "2"}]}}}, "dtype": {"type": "DT_INT32"}}}, {"name": "StatefulPartitionedCall/CollaGANAffluentGenerator/instance_normalization_34/moments/variance/reduction_indices", "op": "Const", "attr": {"dtype": {"type": "DT_INT32"}, "value": {"tensor": {"dtype": "DT_INT32", "tensorShape": {"dim": [{"size": "2"}]}}}}}, {"name": "StatefulPartitionedCall/CollaGANAffluentGenerator/instance_normalization_34/batchnorm/add/y", "op": "Const", "attr": {"value": {"tensor": {"dtype": "DT_FLOAT", "tensorShape": {}}}, "dtype": {"type": "DT_FLOAT"}}}, {"name": "StatefulPartitionedCall/CollaGANAffluentGenerator/instance_normalization_34/Reshape", "op": "Const", "attr": {"value": {"tensor": {"dtype": "DT_FLOAT", "tensorShape": {"dim": [{"size": "1"}, {"size": "1"}, {"size": "1"}, {"size": "512"}]}}}, "dtype": {"type": "DT_FLOAT"}}}, {"name": "StatefulPartitionedCall/CollaGANAffluentGenerator/conv2d_152/Conv2D/ReadVariableOp", "op": "Const", "attr": {"value": {"tensor": {"dtype": "DT_FLOAT", "tensorShape": {"dim": [{"size": "3"}, {"size": "3"}, {"size": "512"}, {"size": "512"}]}}}, "dtype": {"type": "DT_FLOAT"}}}, {"name": "StatefulPartitionedCall/CollaGANAffluentGenerator/conv2d_152/BiasAdd/ReadVariableOp", "op": "Const", "attr": {"value": {"tensor": {"dtype": "DT_FLOAT", "tensorShape": {"dim": [{"size": "512"}]}}}, "dtype": {"type": "DT_FLOAT"}}}, {"name": "StatefulPartitionedCall/CollaGANAffluentGenerator/instance_normalization_35/moments/mean/reduction_indices", "op": "Const", "attr": {"value": {"tensor": {"dtype": "DT_INT32", "tensorShape": {"dim": [{"size": "2"}]}}}, "dtype": {"type": "DT_INT32"}}}, {"name": "StatefulPartitionedCall/CollaGANAffluentGenerator/instance_normalization_35/moments/variance/reduction_indices", "op": "Const", "attr": {"value": {"tensor": {"dtype": "DT_INT32", "tensorShape": {"dim": [{"size": "2"}]}}}, "dtype": {"type": "DT_INT32"}}}, {"name": "StatefulPartitionedCall/CollaGANAffluentGenerator/instance_normalization_35/batchnorm/add/y", "op": "Const", "attr": {"dtype": {"type": "DT_FLOAT"}, "value": {"tensor": {"dtype": "DT_FLOAT", "tensorShape": {}}}}}, {"name": "StatefulPartitionedCall/CollaGANAffluentGenerator/instance_normalization_35/Reshape", "op": "Const", "attr": {"value": {"tensor": {"dtype": "DT_FLOAT", "tensorShape": {"dim": [{"size": "1"}, {"size": "1"}, {"size": "1"}, {"size": "512"}]}}}, "dtype": {"type": "DT_FLOAT"}}}, {"name": "StatefulPartitionedCall/CollaGANAffluentGenerator/conv2d_transpose_1/BiasAdd/ReadVariableOp", "op": "Const", "attr": {"value": {"tensor": {"dtype": "DT_FLOAT", "tensorShape": {"dim": [{"size": "256"}]}}}, "dtype": {"type": "DT_FLOAT"}}}, {"name": "StatefulPartitionedCall/CollaGANAffluentGenerator/tf.concat_8/concat/axis", "op": "Const", "attr": {"value": {"tensor": {"dtype": "DT_INT32", "tensorShape": {}}}, "dtype": {"type": "DT_INT32"}}}, {"name": "StatefulPartitionedCall/CollaGANAffluentGenerator/conv2d_153/Conv2D/ReadVariableOp", "op": "Const", "attr": {"value": {"tensor": {"dtype": "DT_FLOAT", "tensorShape": {"dim": [{"size": "3"}, {"size": "3"}, {"size": "1280"}, {"size": "256"}]}}}, "dtype": {"type": "DT_FLOAT"}}}, {"name": "StatefulPartitionedCall/CollaGANAffluentGenerator/conv2d_153/BiasAdd/ReadVariableOp", "op": "Const", "attr": {"value": {"tensor": {"dtype": "DT_FLOAT", "tensorShape": {"dim": [{"size": "256"}]}}}, "dtype": {"type": "DT_FLOAT"}}}, {"name": "StatefulPartitionedCall/CollaGANAffluentGenerator/instance_normalization_36/moments/mean/reduction_indices", "op": "Const", "attr": {"value": {"tensor": {"dtype": "DT_INT32", "tensorShape": {"dim": [{"size": "2"}]}}}, "dtype": {"type": "DT_INT32"}}}, {"name": "StatefulPartitionedCall/CollaGANAffluentGenerator/instance_normalization_36/moments/variance/reduction_indices", "op": "Const", "attr": {"value": {"tensor": {"dtype": "DT_INT32", "tensorShape": {"dim": [{"size": "2"}]}}}, "dtype": {"type": "DT_INT32"}}}, {"name": "StatefulPartitionedCall/CollaGANAffluentGenerator/instance_normalization_36/batchnorm/add/y", "op": "Const", "attr": {"value": {"tensor": {"dtype": "DT_FLOAT", "tensorShape": {}}}, "dtype": {"type": "DT_FLOAT"}}}, {"name": "StatefulPartitionedCall/CollaGANAffluentGenerator/instance_normalization_36/Reshape", "op": "Const", "attr": {"value": {"tensor": {"dtype": "DT_FLOAT", "tensorShape": {"dim": [{"size": "1"}, {"size": "1"}, {"size": "1"}, {"size": "256"}]}}}, "dtype": {"type": "DT_FLOAT"}}}, {"name": "StatefulPartitionedCall/CollaGANAffluentGenerator/conv2d_154/Conv2D/ReadVariableOp", "op": "Const", "attr": {"value": {"tensor": {"dtype": "DT_FLOAT", "tensorShape": {"dim": [{"size": "3"}, {"size": "3"}, {"size": "256"}, {"size": "256"}]}}}, "dtype": {"type": "DT_FLOAT"}}}, {"name": "StatefulPartitionedCall/CollaGANAffluentGenerator/conv2d_154/BiasAdd/ReadVariableOp", "op": "Const", "attr": {"value": {"tensor": {"dtype": "DT_FLOAT", "tensorShape": {"dim": [{"size": "256"}]}}}, "dtype": {"type": "DT_FLOAT"}}}, {"name": "StatefulPartitionedCall/CollaGANAffluentGenerator/instance_normalization_37/moments/mean/reduction_indices", "op": "Const", "attr": {"value": {"tensor": {"dtype": "DT_INT32", "tensorShape": {"dim": [{"size": "2"}]}}}, "dtype": {"type": "DT_INT32"}}}, {"name": "StatefulPartitionedCall/CollaGANAffluentGenerator/instance_normalization_37/moments/variance/reduction_indices", "op": "Const", "attr": {"value": {"tensor": {"dtype": "DT_INT32", "tensorShape": {"dim": [{"size": "2"}]}}}, "dtype": {"type": "DT_INT32"}}}, {"name": "StatefulPartitionedCall/CollaGANAffluentGenerator/instance_normalization_37/batchnorm/add/y", "op": "Const", "attr": {"value": {"tensor": {"dtype": "DT_FLOAT", "tensorShape": {}}}, "dtype": {"type": "DT_FLOAT"}}}, {"name": "StatefulPartitionedCall/CollaGANAffluentGenerator/instance_normalization_37/Reshape", "op": "Const", "attr": {"value": {"tensor": {"dtype": "DT_FLOAT", "tensorShape": {"dim": [{"size": "1"}, {"size": "1"}, {"size": "1"}, {"size": "256"}]}}}, "dtype": {"type": "DT_FLOAT"}}}, {"name": "StatefulPartitionedCall/CollaGANAffluentGenerator/conv2d_transpose_2/BiasAdd/ReadVariableOp", "op": "Const", "attr": {"value": {"tensor": {"dtype": "DT_FLOAT", "tensorShape": {"dim": [{"size": "128"}]}}}, "dtype": {"type": "DT_FLOAT"}}}, {"name": "StatefulPartitionedCall/CollaGANAffluentGenerator/tf.concat_10/concat/axis", "op": "Const", "attr": {"value": {"tensor": {"dtype": "DT_INT32", "tensorShape": {}}}, "dtype": {"type": "DT_INT32"}}}, {"name": "StatefulPartitionedCall/CollaGANAffluentGenerator/conv2d_155/Conv2D/ReadVariableOp", "op": "Const", "attr": {"value": {"tensor": {"dtype": "DT_FLOAT", "tensorShape": {"dim": [{"size": "3"}, {"size": "3"}, {"size": "640"}, {"size": "128"}]}}}, "dtype": {"type": "DT_FLOAT"}}}, {"name": "StatefulPartitionedCall/CollaGANAffluentGenerator/conv2d_155/BiasAdd/ReadVariableOp", "op": "Const", "attr": {"value": {"tensor": {"dtype": "DT_FLOAT", "tensorShape": {"dim": [{"size": "128"}]}}}, "dtype": {"type": "DT_FLOAT"}}}, {"name": "StatefulPartitionedCall/CollaGANAffluentGenerator/instance_normalization_38/moments/mean/reduction_indices", "op": "Const", "attr": {"value": {"tensor": {"dtype": "DT_INT32", "tensorShape": {"dim": [{"size": "2"}]}}}, "dtype": {"type": "DT_INT32"}}}, {"name": "StatefulPartitionedCall/CollaGANAffluentGenerator/instance_normalization_38/moments/variance/reduction_indices", "op": "Const", "attr": {"value": {"tensor": {"dtype": "DT_INT32", "tensorShape": {"dim": [{"size": "2"}]}}}, "dtype": {"type": "DT_INT32"}}}, {"name": "StatefulPartitionedCall/CollaGANAffluentGenerator/instance_normalization_38/batchnorm/add/y", "op": "Const", "attr": {"value": {"tensor": {"dtype": "DT_FLOAT", "tensorShape": {}}}, "dtype": {"type": "DT_FLOAT"}}}, {"name": "StatefulPartitionedCall/CollaGANAffluentGenerator/instance_normalization_38/Reshape", "op": "Const", "attr": {"value": {"tensor": {"dtype": "DT_FLOAT", "tensorShape": {"dim": [{"size": "1"}, {"size": "1"}, {"size": "1"}, {"size": "128"}]}}}, "dtype": {"type": "DT_FLOAT"}}}, {"name": "StatefulPartitionedCall/CollaGANAffluentGenerator/conv2d_156/Conv2D/ReadVariableOp", "op": "Const", "attr": {"value": {"tensor": {"dtype": "DT_FLOAT", "tensorShape": {"dim": [{"size": "3"}, {"size": "3"}, {"size": "128"}, {"size": "128"}]}}}, "dtype": {"type": "DT_FLOAT"}}}, {"name": "StatefulPartitionedCall/CollaGANAffluentGenerator/conv2d_156/BiasAdd/ReadVariableOp", "op": "Const", "attr": {"value": {"tensor": {"dtype": "DT_FLOAT", "tensorShape": {"dim": [{"size": "128"}]}}}, "dtype": {"type": "DT_FLOAT"}}}, {"name": "StatefulPartitionedCall/CollaGANAffluentGenerator/instance_normalization_39/moments/mean/reduction_indices", "op": "Const", "attr": {"dtype": {"type": "DT_INT32"}, "value": {"tensor": {"dtype": "DT_INT32", "tensorShape": {"dim": [{"size": "2"}]}}}}}, {"name": "StatefulPartitionedCall/CollaGANAffluentGenerator/instance_normalization_39/moments/variance/reduction_indices", "op": "Const", "attr": {"dtype": {"type": "DT_INT32"}, "value": {"tensor": {"dtype": "DT_INT32", "tensorShape": {"dim": [{"size": "2"}]}}}}}, {"name": "StatefulPartitionedCall/CollaGANAffluentGenerator/instance_normalization_39/batchnorm/add/y", "op": "Const", "attr": {"value": {"tensor": {"dtype": "DT_FLOAT", "tensorShape": {}}}, "dtype": {"type": "DT_FLOAT"}}}, {"name": "StatefulPartitionedCall/CollaGANAffluentGenerator/instance_normalization_39/Reshape", "op": "Const", "attr": {"dtype": {"type": "DT_FLOAT"}, "value": {"tensor": {"dtype": "DT_FLOAT", "tensorShape": {"dim": [{"size": "1"}, {"size": "1"}, {"size": "1"}, {"size": "128"}]}}}}}, {"name": "StatefulPartitionedCall/CollaGANAffluentGenerator/conv2d_transpose_3/BiasAdd/ReadVariableOp", "op": "Const", "attr": {"dtype": {"type": "DT_FLOAT"}, "value": {"tensor": {"dtype": "DT_FLOAT", "tensorShape": {"dim": [{"size": "64"}]}}}}}, {"name": "StatefulPartitionedCall/CollaGANAffluentGenerator/tf.concat_12/concat/axis", "op": "Const", "attr": {"value": {"tensor": {"dtype": "DT_INT32", "tensorShape": {}}}, "dtype": {"type": "DT_INT32"}}}, {"name": "StatefulPartitionedCall/CollaGANAffluentGenerator/conv2d_157/Conv2D/ReadVariableOp", "op": "Const", "attr": {"value": {"tensor": {"dtype": "DT_FLOAT", "tensorShape": {"dim": [{"size": "3"}, {"size": "3"}, {"size": "320"}, {"size": "64"}]}}}, "dtype": {"type": "DT_FLOAT"}}}, {"name": "StatefulPartitionedCall/CollaGANAffluentGenerator/conv2d_157/BiasAdd/ReadVariableOp", "op": "Const", "attr": {"value": {"tensor": {"dtype": "DT_FLOAT", "tensorShape": {"dim": [{"size": "64"}]}}}, "dtype": {"type": "DT_FLOAT"}}}, {"name": "StatefulPartitionedCall/CollaGANAffluentGenerator/instance_normalization_40/moments/mean/reduction_indices", "op": "Const", "attr": {"value": {"tensor": {"dtype": "DT_INT32", "tensorShape": {"dim": [{"size": "2"}]}}}, "dtype": {"type": "DT_INT32"}}}, {"name": "StatefulPartitionedCall/CollaGANAffluentGenerator/instance_normalization_40/moments/variance/reduction_indices", "op": "Const", "attr": {"value": {"tensor": {"dtype": "DT_INT32", "tensorShape": {"dim": [{"size": "2"}]}}}, "dtype": {"type": "DT_INT32"}}}, {"name": "StatefulPartitionedCall/CollaGANAffluentGenerator/instance_normalization_40/batchnorm/add/y", "op": "Const", "attr": {"value": {"tensor": {"dtype": "DT_FLOAT", "tensorShape": {}}}, "dtype": {"type": "DT_FLOAT"}}}, {"name": "StatefulPartitionedCall/CollaGANAffluentGenerator/instance_normalization_40/Reshape", "op": "Const", "attr": {"dtype": {"type": "DT_FLOAT"}, "value": {"tensor": {"dtype": "DT_FLOAT", "tensorShape": {"dim": [{"size": "1"}, {"size": "1"}, {"size": "1"}, {"size": "64"}]}}}}}, {"name": "StatefulPartitionedCall/CollaGANAffluentGenerator/conv2d_158/Conv2D/ReadVariableOp", "op": "Const", "attr": {"dtype": {"type": "DT_FLOAT"}, "value": {"tensor": {"dtype": "DT_FLOAT", "tensorShape": {"dim": [{"size": "3"}, {"size": "3"}, {"size": "64"}, {"size": "64"}]}}}}}, {"name": "StatefulPartitionedCall/CollaGANAffluentGenerator/conv2d_158/BiasAdd/ReadVariableOp", "op": "Const", "attr": {"value": {"tensor": {"dtype": "DT_FLOAT", "tensorShape": {"dim": [{"size": "64"}]}}}, "dtype": {"type": "DT_FLOAT"}}}, {"name": "StatefulPartitionedCall/CollaGANAffluentGenerator/instance_normalization_41/moments/mean/reduction_indices", "op": "Const", "attr": {"value": {"tensor": {"dtype": "DT_INT32", "tensorShape": {"dim": [{"size": "2"}]}}}, "dtype": {"type": "DT_INT32"}}}, {"name": "StatefulPartitionedCall/CollaGANAffluentGenerator/instance_normalization_41/moments/variance/reduction_indices", "op": "Const", "attr": {"value": {"tensor": {"dtype": "DT_INT32", "tensorShape": {"dim": [{"size": "2"}]}}}, "dtype": {"type": "DT_INT32"}}}, {"name": "StatefulPartitionedCall/CollaGANAffluentGenerator/instance_normalization_41/batchnorm/add/y", "op": "Const", "attr": {"value": {"tensor": {"dtype": "DT_FLOAT", "tensorShape": {}}}, "dtype": {"type": "DT_FLOAT"}}}, {"name": "StatefulPartitionedCall/CollaGANAffluentGenerator/instance_normalization_41/Reshape", "op": "Const", "attr": {"dtype": {"type": "DT_FLOAT"}, "value": {"tensor": {"dtype": "DT_FLOAT", "tensorShape": {"dim": [{"size": "1"}, {"size": "1"}, {"size": "1"}, {"size": "64"}]}}}}}, {"name": "StatefulPartitionedCall/CollaGANAffluentGenerator/conv2d_159/Conv2D/ReadVariableOp", "op": "Const", "attr": {"value": {"tensor": {"dtype": "DT_FLOAT", "tensorShape": {"dim": [{"size": "1"}, {"size": "1"}, {"size": "64"}, {"size": "4"}]}}}, "dtype": {"type": "DT_FLOAT"}}}, {"name": "source_images", "op": "Placeholder", "attr": {"dtype": {"type": "DT_FLOAT"}, "shape": {"shape": {"dim": [{"size": "-1"}, {"size": "4"}, {"size": "64"}, {"size": "64"}, {"size": "4"}]}}}}, {"name": "target_domain", "op": "Placeholder", "attr": {"dtype": {"type": "DT_FLOAT"}, "shape": {"shape": {"dim": [{"size": "-1"}, {"size": "1"}]}}}}, {"name": "StatefulPartitionedCall/CollaGANAffluentGenerator/tf.unstack/unstack", "op": "Unpack", "input": ["source_images"], "attr": {"T": {"type": "DT_FLOAT"}, "axis": {"i": "1"}, "num": {"i": "4"}}}, {"name": "StatefulPartitionedCall/CollaGANAffluentGenerator/category_encoding/bincount/Cast", "op": "Cast", "input": ["target_domain"], "attr": {"SrcT": {"type": "DT_FLOAT"}, "Truncate": {"b": false}, "DstT": {"type": "DT_INT32"}}}, {"name": "StatefulPartitionedCall/CollaGANAffluentGenerator/category_encoding/bincount/maxlength", "op": "Const", "input": ["^target_domain"], "attr": {"value": {"tensor": {"dtype": "DT_INT32", "tensorShape": {}}}, "dtype": {"type": "DT_INT32"}}}, {"name": "StatefulPartitionedCall/CollaGANAffluentGenerator/category_encoding/bincount/minlength", "op": "Const", "input": ["^target_domain"], "attr": {"dtype": {"type": "DT_INT32"}, "value": {"tensor": {"dtype": "DT_INT32", "tensorShape": {}}}}}, {"name": "StatefulPartitionedCall/CollaGANAffluentGenerator/category_encoding/bincount/Const", "op": "Const", "input": ["^target_domain"], "attr": {"value": {"tensor": {"dtype": "DT_INT32", "tensorShape": {"dim": [{"size": "1"}]}}}, "dtype": {"type": "DT_INT32"}}}, {"name": "StatefulPartitionedCall/CollaGANAffluentGenerator/category_encoding/bincount/Greater/y", "op": "Const", "input": ["^target_domain"], "attr": {"value": {"tensor": {"dtype": "DT_INT32", "tensorShape": {}}}, "dtype": {"type": "DT_INT32"}}}, {"name": "StatefulPartitionedCall/CollaGANAffluentGenerator/category_encoding/bincount/Const_1", "op": "Const", "input": ["^target_domain"], "attr": {"value": {"tensor": {"dtype": "DT_INT32", "tensorShape": {"dim": [{"size": "2"}]}}}, "dtype": {"type": "DT_INT32"}}}, {"name": "StatefulPartitionedCall/CollaGANAffluentGenerator/category_encoding/bincount/add/y", "op": "Const", "input": ["^target_domain"], "attr": {"value": {"tensor": {"dtype": "DT_INT32", "tensorShape": {}}}, "dtype": {"type": "DT_INT32"}}}, {"name": "StatefulPartitionedCall/CollaGANAffluentGenerator/category_encoding/bincount/Const_2", "op": "Const", "input": ["^target_domain"], "attr": {"value": {"tensor": {"dtype": "DT_FLOAT", "tensorShape": {"dim": [{}]}}}, "dtype": {"type": "DT_FLOAT"}}}, {"name": "StatefulPartitionedCall/CollaGANAffluentGenerator/category_encoding/bincount/Shape", "op": "Shape", "input": ["StatefulPartitionedCall/CollaGANAffluentGenerator/category_encoding/bincount/Cast"], "attr": {"out_type": {"type": "DT_INT32"}, "T": {"type": "DT_INT32"}}}, {"name": "StatefulPartitionedCall/CollaGANAffluentGenerator/category_encoding/bincount/Max", "op": "Max", "input": ["StatefulPartitionedCall/CollaGANAffluentGenerator/category_encoding/bincount/Cast", "StatefulPartitionedCall/CollaGANAffluentGenerator/category_encoding/bincount/Const_1"], "attr": {"T": {"type": "DT_INT32"}, "Tidx": {"type": "DT_INT32"}, "keep_dims": {"b": false}}}, {"name": "StatefulPartitionedCall/CollaGANAffluentGenerator/category_encoding/bincount/Prod", "op": "Prod", "input": ["StatefulPartitionedCall/CollaGANAffluentGenerator/category_encoding/bincount/Shape", "StatefulPartitionedCall/CollaGANAffluentGenerator/category_encoding/bincount/Const"], "attr": {"T": {"type": "DT_INT32"}, "keep_dims": {"b": false}, "Tidx": {"type": "DT_INT32"}}}, {"name": "StatefulPartitionedCall/CollaGANAffluentGenerator/category_encoding/bincount/add", "op": "AddV2", "input": ["StatefulPartitionedCall/CollaGANAffluentGenerator/category_encoding/bincount/Max", "StatefulPartitionedCall/CollaGANAffluentGenerator/category_encoding/bincount/add/y"], "attr": {"T": {"type": "DT_INT32"}}}, {"name": "StatefulPartitionedCall/CollaGANAffluentGenerator/category_encoding/bincount/Greater", "op": "Greater", "input": ["StatefulPartitionedCall/CollaGANAffluentGenerator/category_encoding/bincount/Prod", "StatefulPartitionedCall/CollaGANAffluentGenerator/category_encoding/bincount/Greater/y"], "attr": {"T": {"type": "DT_INT32"}}}, {"name": "StatefulPartitionedCall/CollaGANAffluentGenerator/category_encoding/bincount/Cast_1", "op": "Cast", "input": ["StatefulPartitionedCall/CollaGANAffluentGenerator/category_encoding/bincount/Greater"], "attr": {"Truncate": {"b": false}, "DstT": {"type": "DT_INT32"}, "SrcT": {"type": "DT_BOOL"}}}, {"name": "StatefulPartitionedCall/CollaGANAffluentGenerator/category_encoding/bincount/mul", "op": "Mul", "input": ["StatefulPartitionedCall/CollaGANAffluentGenerator/category_encoding/bincount/Cast_1", "StatefulPartitionedCall/CollaGANAffluentGenerator/category_encoding/bincount/add"], "attr": {"T": {"type": "DT_INT32"}}}, {"name": "StatefulPartitionedCall/CollaGANAffluentGenerator/category_encoding/bincount/Maximum", "op": "Maximum", "input": ["StatefulPartitionedCall/CollaGANAffluentGenerator/category_encoding/bincount/minlength", "StatefulPartitionedCall/CollaGANAffluentGenerator/category_encoding/bincount/mul"], "attr": {"T": {"type": "DT_INT32"}}}, {"name": "StatefulPartitionedCall/CollaGANAffluentGenerator/category_encoding/bincount/Minimum", "op": "Minimum", "input": ["StatefulPartitionedCall/CollaGANAffluentGenerator/category_encoding/bincount/maxlength", "StatefulPartitionedCall/CollaGANAffluentGenerator/category_encoding/bincount/Maximum"], "attr": {"T": {"type": "DT_INT32"}}}, {"name": "StatefulPartitionedCall/CollaGANAffluentGenerator/category_encoding/bincount/DenseBincount", "op": "DenseBincount", "input": ["StatefulPartitionedCall/CollaGANAffluentGenerator/category_encoding/bincount/Cast", "StatefulPartitionedCall/CollaGANAffluentGenerator/category_encoding/bincount/Minimum", "StatefulPartitionedCall/CollaGANAffluentGenerator/category_encoding/bincount/Const_2"], "attr": {"T": {"type": "DT_FLOAT"}, "Tidx": {"type": "DT_INT32"}, "binary_output": {"b": true}}}, {"name": "StatefulPartitionedCall/CollaGANAffluentGenerator/tile_layer/ExpandDims", "op": "ExpandDims", "input": ["StatefulPartitionedCall/CollaGANAffluentGenerator/category_encoding/bincount/DenseBincount", "StatefulPartitionedCall/CollaGANAffluentGenerator/tile_layer/ExpandDims/dim"], "attr": {"T": {"type": "DT_FLOAT"}, "Tdim": {"type": "DT_INT32"}}}, {"name": "StatefulPartitionedCall/CollaGANAffluentGenerator/tile_layer/TileLayer", "op": "Tile", "input": ["StatefulPartitionedCall/CollaGANAffluentGenerator/tile_layer/ExpandDims", "StatefulPartitionedCall/CollaGANAffluentGenerator/tile_layer/TileLayer/multiples"], "attr": {"Tmultiples": {"type": "DT_INT32"}, "T": {"type": "DT_FLOAT"}}}, {"name": "StatefulPartitionedCall/CollaGANAffluentGenerator/tile_layer_1/ExpandDims", "op": "ExpandDims", "input": ["StatefulPartitionedCall/CollaGANAffluentGenerator/tile_layer/TileLayer", "StatefulPartitionedCall/CollaGANAffluentGenerator/tile_layer_1/ExpandDims/dim"], "attr": {"Tdim": {"type": "DT_INT32"}, "T": {"type": "DT_FLOAT"}}}, {"name": "StatefulPartitionedCall/CollaGANAffluentGenerator/tile_layer_1/TileLayer", "op": "Tile", "input": ["StatefulPartitionedCall/CollaGANAffluentGenerator/tile_layer_1/ExpandDims", "StatefulPartitionedCall/CollaGANAffluentGenerator/tile_layer_1/TileLayer/multiples"], "attr": {"T": {"type": "DT_FLOAT"}, "Tmultiples": {"type": "DT_INT32"}}}, {"name": "StatefulPartitionedCall/CollaGANAffluentGenerator/tf.concat/concat", "op": "ConcatV2", "input": ["StatefulPartitionedCall/CollaGANAffluentGenerator/tf.unstack/unstack", "StatefulPartitionedCall/CollaGANAffluentGenerator/tile_layer_1/TileLayer", "StatefulPartitionedCall/CollaGANAffluentGenerator/tf.concat/concat/axis"], "attr": {"N": {"i": "2"}, "Tidx": {"type": "DT_INT32"}, "T": {"type": "DT_FLOAT"}}}, {"name": "StatefulPartitionedCall/CollaGANAffluentGenerator/tf.concat_1/concat", "op": "ConcatV2", "input": ["StatefulPartitionedCall/CollaGANAffluentGenerator/tf.unstack/unstack:1", "StatefulPartitionedCall/CollaGANAffluentGenerator/tile_layer_1/TileLayer", "StatefulPartitionedCall/CollaGANAffluentGenerator/tf.concat_1/concat/axis"], "attr": {"N": {"i": "2"}, "T": {"type": "DT_FLOAT"}, "Tidx": {"type": "DT_INT32"}}}, {"name": "StatefulPartitionedCall/CollaGANAffluentGenerator/tf.concat_2/concat", "op": "ConcatV2", "input": ["StatefulPartitionedCall/CollaGANAffluentGenerator/tf.unstack/unstack:2", "StatefulPartitionedCall/CollaGANAffluentGenerator/tile_layer_1/TileLayer", "StatefulPartitionedCall/CollaGANAffluentGenerator/tf.concat_2/concat/axis"], "attr": {"Tidx": {"type": "DT_INT32"}, "T": {"type": "DT_FLOAT"}, "N": {"i": "2"}}}, {"name": "StatefulPartitionedCall/CollaGANAffluentGenerator/tf.concat_3/concat", "op": "ConcatV2", "input": ["StatefulPartitionedCall/CollaGANAffluentGenerator/tf.unstack/unstack:3", "StatefulPartitionedCall/CollaGANAffluentGenerator/tile_layer_1/TileLayer", "StatefulPartitionedCall/CollaGANAffluentGenerator/tf.concat_3/concat/axis"], "attr": {"N": {"i": "2"}, "T": {"type": "DT_FLOAT"}, "Tidx": {"type": "DT_INT32"}}}, {"name": "StatefulPartitionedCall/CollaGANAffluentGenerator/conv2d_101/BiasAdd", "op": "_FusedConv2D", "input": ["StatefulPartitionedCall/CollaGANAffluentGenerator/tf.concat/concat", "StatefulPartitionedCall/CollaGANAffluentGenerator/conv2d_101/Conv2D/ReadVariableOp", "StatefulPartitionedCall/CollaGANAffluentGenerator/conv2d_101/BiasAdd/ReadVariableOp"], "device": "/device:CPU:0", "attr": {"fused_ops": {"list": {"s": ["Qmlhc0FkZA=="]}}, "strides": {"list": {"i": ["1", "1", "1", "1"]}}, "explicit_paddings": {"list": {}}, "data_format": {"s": "TkhXQw=="}, "padding": {"s": "U0FNRQ=="}, "num_args": {"i": "1"}, "use_cudnn_on_gpu": {"b": true}, "T": {"type": "DT_FLOAT"}, "epsilon": {"f": 0.0}, "dilations": {"list": {"i": ["1", "1", "1", "1"]}}}}, {"name": "StatefulPartitionedCall/CollaGANAffluentGenerator/conv2d_113/BiasAdd", "op": "_FusedConv2D", "input": ["StatefulPartitionedCall/CollaGANAffluentGenerator/tf.concat_1/concat", "StatefulPartitionedCall/CollaGANAffluentGenerator/conv2d_113/Conv2D/ReadVariableOp", "StatefulPartitionedCall/CollaGANAffluentGenerator/conv2d_113/BiasAdd/ReadVariableOp"], "device": "/device:CPU:0", "attr": {"T": {"type": "DT_FLOAT"}, "strides": {"list": {"i": ["1", "1", "1", "1"]}}, "data_format": {"s": "TkhXQw=="}, "use_cudnn_on_gpu": {"b": true}, "epsilon": {"f": 0.0}, "num_args": {"i": "1"}, "fused_ops": {"list": {"s": ["Qmlhc0FkZA=="]}}, "padding": {"s": "U0FNRQ=="}, "dilations": {"list": {"i": ["1", "1", "1", "1"]}}, "explicit_paddings": {"list": {}}}}, {"name": "StatefulPartitionedCall/CollaGANAffluentGenerator/conv2d_125/BiasAdd", "op": "_FusedConv2D", "input": ["StatefulPartitionedCall/CollaGANAffluentGenerator/tf.concat_2/concat", "StatefulPartitionedCall/CollaGANAffluentGenerator/conv2d_125/Conv2D/ReadVariableOp", "StatefulPartitionedCall/CollaGANAffluentGenerator/conv2d_125/BiasAdd/ReadVariableOp"], "device": "/device:CPU:0", "attr": {"padding": {"s": "U0FNRQ=="}, "data_format": {"s": "TkhXQw=="}, "num_args": {"i": "1"}, "use_cudnn_on_gpu": {"b": true}, "T": {"type": "DT_FLOAT"}, "fused_ops": {"list": {"s": ["Qmlhc0FkZA=="]}}, "epsilon": {"f": 0.0}, "dilations": {"list": {"i": ["1", "1", "1", "1"]}}, "strides": {"list": {"i": ["1", "1", "1", "1"]}}, "explicit_paddings": {"list": {}}}}, {"name": "StatefulPartitionedCall/CollaGANAffluentGenerator/conv2d_137/BiasAdd", "op": "_FusedConv2D", "input": ["StatefulPartitionedCall/CollaGANAffluentGenerator/tf.concat_3/concat", "StatefulPartitionedCall/CollaGANAffluentGenerator/conv2d_137/Conv2D/ReadVariableOp", "StatefulPartitionedCall/CollaGANAffluentGenerator/conv2d_137/BiasAdd/ReadVariableOp"], "device": "/device:CPU:0", "attr": {"use_cudnn_on_gpu": {"b": true}, "num_args": {"i": "1"}, "T": {"type": "DT_FLOAT"}, "strides": {"list": {"i": ["1", "1", "1", "1"]}}, "explicit_paddings": {"list": {}}, "padding": {"s": "U0FNRQ=="}, "data_format": {"s": "TkhXQw=="}, "epsilon": {"f": 0.0}, "dilations": {"list": {"i": ["1", "1", "1", "1"]}}, "fused_ops": {"list": {"s": ["Qmlhc0FkZA=="]}}}}, {"name": "StatefulPartitionedCall/CollaGANAffluentGenerator/instance_normalization/moments/mean", "op": "Mean", "input": ["StatefulPartitionedCall/CollaGANAffluentGenerator/conv2d_101/BiasAdd", "StatefulPartitionedCall/CollaGANAffluentGenerator/instance_normalization/moments/mean/reduction_indices"], "attr": {"T": {"type": "DT_FLOAT"}, "Tidx": {"type": "DT_INT32"}, "keep_dims": {"b": true}}}, {"name": "StatefulPartitionedCall/CollaGANAffluentGenerator/instance_normalization_8/moments/mean", "op": "Mean", "input": ["StatefulPartitionedCall/CollaGANAffluentGenerator/conv2d_113/BiasAdd", "StatefulPartitionedCall/CollaGANAffluentGenerator/instance_normalization_8/moments/mean/reduction_indices"], "attr": {"T": {"type": "DT_FLOAT"}, "Tidx": {"type": "DT_INT32"}, "keep_dims": {"b": true}}}, {"name": "StatefulPartitionedCall/CollaGANAffluentGenerator/instance_normalization_16/moments/mean", "op": "Mean", "input": ["StatefulPartitionedCall/CollaGANAffluentGenerator/conv2d_125/BiasAdd", "StatefulPartitionedCall/CollaGANAffluentGenerator/instance_normalization_16/moments/mean/reduction_indices"], "attr": {"T": {"type": "DT_FLOAT"}, "keep_dims": {"b": true}, "Tidx": {"type": "DT_INT32"}}}, {"name": "StatefulPartitionedCall/CollaGANAffluentGenerator/instance_normalization_24/moments/mean", "op": "Mean", "input": ["StatefulPartitionedCall/CollaGANAffluentGenerator/conv2d_137/BiasAdd", "StatefulPartitionedCall/CollaGANAffluentGenerator/instance_normalization_24/moments/mean/reduction_indices"], "attr": {"keep_dims": {"b": true}, "T": {"type": "DT_FLOAT"}, "Tidx": {"type": "DT_INT32"}}}, {"name": "StatefulPartitionedCall/CollaGANAffluentGenerator/instance_normalization/moments/SquaredDifference", "op": "SquaredDifference", "input": ["StatefulPartitionedCall/CollaGANAffluentGenerator/conv2d_101/BiasAdd", "StatefulPartitionedCall/CollaGANAffluentGenerator/instance_normalization/moments/mean"], "attr": {"T": {"type": "DT_FLOAT"}}}, {"name": "StatefulPartitionedCall/CollaGANAffluentGenerator/instance_normalization_8/moments/SquaredDifference", "op": "SquaredDifference", "input": ["StatefulPartitionedCall/CollaGANAffluentGenerator/conv2d_113/BiasAdd", "StatefulPartitionedCall/CollaGANAffluentGenerator/instance_normalization_8/moments/mean"], "attr": {"T": {"type": "DT_FLOAT"}}}, {"name": "StatefulPartitionedCall/CollaGANAffluentGenerator/instance_normalization_16/moments/SquaredDifference", "op": "SquaredDifference", "input": ["StatefulPartitionedCall/CollaGANAffluentGenerator/conv2d_125/BiasAdd", "StatefulPartitionedCall/CollaGANAffluentGenerator/instance_normalization_16/moments/mean"], "attr": {"T": {"type": "DT_FLOAT"}}}, {"name": "StatefulPartitionedCall/CollaGANAffluentGenerator/instance_normalization_24/moments/SquaredDifference", "op": "SquaredDifference", "input": ["StatefulPartitionedCall/CollaGANAffluentGenerator/conv2d_137/BiasAdd", "StatefulPartitionedCall/CollaGANAffluentGenerator/instance_normalization_24/moments/mean"], "attr": {"T": {"type": "DT_FLOAT"}}}, {"name": "StatefulPartitionedCall/CollaGANAffluentGenerator/instance_normalization/moments/variance", "op": "Mean", "input": ["StatefulPartitionedCall/CollaGANAffluentGenerator/instance_normalization/moments/SquaredDifference", "StatefulPartitionedCall/CollaGANAffluentGenerator/instance_normalization/moments/variance/reduction_indices"], "attr": {"Tidx": {"type": "DT_INT32"}, "keep_dims": {"b": true}, "T": {"type": "DT_FLOAT"}}}, {"name": "StatefulPartitionedCall/CollaGANAffluentGenerator/instance_normalization_8/moments/variance", "op": "Mean", "input": ["StatefulPartitionedCall/CollaGANAffluentGenerator/instance_normalization_8/moments/SquaredDifference", "StatefulPartitionedCall/CollaGANAffluentGenerator/instance_normalization_8/moments/variance/reduction_indices"], "attr": {"T": {"type": "DT_FLOAT"}, "keep_dims": {"b": true}, "Tidx": {"type": "DT_INT32"}}}, {"name": "StatefulPartitionedCall/CollaGANAffluentGenerator/instance_normalization_16/moments/variance", "op": "Mean", "input": ["StatefulPartitionedCall/CollaGANAffluentGenerator/instance_normalization_16/moments/SquaredDifference", "StatefulPartitionedCall/CollaGANAffluentGenerator/instance_normalization_16/moments/variance/reduction_indices"], "attr": {"T": {"type": "DT_FLOAT"}, "keep_dims": {"b": true}, "Tidx": {"type": "DT_INT32"}}}, {"name": "StatefulPartitionedCall/CollaGANAffluentGenerator/instance_normalization_24/moments/variance", "op": "Mean", "input": ["StatefulPartitionedCall/CollaGANAffluentGenerator/instance_normalization_24/moments/SquaredDifference", "StatefulPartitionedCall/CollaGANAffluentGenerator/instance_normalization_24/moments/variance/reduction_indices"], "attr": {"T": {"type": "DT_FLOAT"}, "Tidx": {"type": "DT_INT32"}, "keep_dims": {"b": true}}}, {"name": "StatefulPartitionedCall/CollaGANAffluentGenerator/instance_normalization/batchnorm/add", "op": "AddV2", "input": ["StatefulPartitionedCall/CollaGANAffluentGenerator/instance_normalization/moments/variance", "StatefulPartitionedCall/CollaGANAffluentGenerator/instance_normalization/batchnorm/add/y"], "attr": {"T": {"type": "DT_FLOAT"}}}, {"name": "StatefulPartitionedCall/CollaGANAffluentGenerator/instance_normalization_8/batchnorm/add", "op": "AddV2", "input": ["StatefulPartitionedCall/CollaGANAffluentGenerator/instance_normalization_8/moments/variance", "StatefulPartitionedCall/CollaGANAffluentGenerator/instance_normalization_8/batchnorm/add/y"], "attr": {"T": {"type": "DT_FLOAT"}}}, {"name": "StatefulPartitionedCall/CollaGANAffluentGenerator/instance_normalization_16/batchnorm/add", "op": "AddV2", "input": ["StatefulPartitionedCall/CollaGANAffluentGenerator/instance_normalization_16/moments/variance", "StatefulPartitionedCall/CollaGANAffluentGenerator/instance_normalization_16/batchnorm/add/y"], "attr": {"T": {"type": "DT_FLOAT"}}}, {"name": "StatefulPartitionedCall/CollaGANAffluentGenerator/instance_normalization_24/batchnorm/add", "op": "AddV2", "input": ["StatefulPartitionedCall/CollaGANAffluentGenerator/instance_normalization_24/moments/variance", "StatefulPartitionedCall/CollaGANAffluentGenerator/instance_normalization_24/batchnorm/add/y"], "attr": {"T": {"type": "DT_FLOAT"}}}, {"name": "StatefulPartitionedCall/CollaGANAffluentGenerator/instance_normalization/batchnorm/Rsqrt", "op": "Rsqrt", "input": ["StatefulPartitionedCall/CollaGANAffluentGenerator/instance_normalization/batchnorm/add"], "attr": {"T": {"type": "DT_FLOAT"}}}, {"name": "StatefulPartitionedCall/CollaGANAffluentGenerator/instance_normalization_8/batchnorm/Rsqrt", "op": "Rsqrt", "input": ["StatefulPartitionedCall/CollaGANAffluentGenerator/instance_normalization_8/batchnorm/add"], "attr": {"T": {"type": "DT_FLOAT"}}}, {"name": "StatefulPartitionedCall/CollaGANAffluentGenerator/instance_normalization_16/batchnorm/Rsqrt", "op": "Rsqrt", "input": ["StatefulPartitionedCall/CollaGANAffluentGenerator/instance_normalization_16/batchnorm/add"], "attr": {"T": {"type": "DT_FLOAT"}}}, {"name": "StatefulPartitionedCall/CollaGANAffluentGenerator/instance_normalization_24/batchnorm/Rsqrt", "op": "Rsqrt", "input": ["StatefulPartitionedCall/CollaGANAffluentGenerator/instance_normalization_24/batchnorm/add"], "attr": {"T": {"type": "DT_FLOAT"}}}, {"name": "StatefulPartitionedCall/CollaGANAffluentGenerator/instance_normalization/batchnorm/mul", "op": "Mul", "input": ["StatefulPartitionedCall/CollaGANAffluentGenerator/instance_normalization/batchnorm/Rsqrt", "StatefulPartitionedCall/CollaGANAffluentGenerator/instance_normalization/Reshape"], "attr": {"T": {"type": "DT_FLOAT"}}}, {"name": "StatefulPartitionedCall/CollaGANAffluentGenerator/instance_normalization_8/batchnorm/mul", "op": "Mul", "input": ["StatefulPartitionedCall/CollaGANAffluentGenerator/instance_normalization_8/batchnorm/Rsqrt", "StatefulPartitionedCall/CollaGANAffluentGenerator/instance_normalization_8/Reshape"], "attr": {"T": {"type": "DT_FLOAT"}}}, {"name": "StatefulPartitionedCall/CollaGANAffluentGenerator/instance_normalization_16/batchnorm/mul", "op": "Mul", "input": ["StatefulPartitionedCall/CollaGANAffluentGenerator/instance_normalization_16/batchnorm/Rsqrt", "StatefulPartitionedCall/CollaGANAffluentGenerator/instance_normalization_16/Reshape"], "attr": {"T": {"type": "DT_FLOAT"}}}, {"name": "StatefulPartitionedCall/CollaGANAffluentGenerator/instance_normalization_24/batchnorm/mul", "op": "Mul", "input": ["StatefulPartitionedCall/CollaGANAffluentGenerator/instance_normalization_24/batchnorm/Rsqrt", "StatefulPartitionedCall/CollaGANAffluentGenerator/instance_normalization_24/Reshape"], "attr": {"T": {"type": "DT_FLOAT"}}}, {"name": "StatefulPartitionedCall/CollaGANAffluentGenerator/instance_normalization/batchnorm/mul_2", "op": "Mul", "input": ["StatefulPartitionedCall/CollaGANAffluentGenerator/instance_normalization/moments/mean", "StatefulPartitionedCall/CollaGANAffluentGenerator/instance_normalization/batchnorm/mul"], "attr": {"T": {"type": "DT_FLOAT"}}}, {"name": "StatefulPartitionedCall/CollaGANAffluentGenerator/instance_normalization/batchnorm/mul_1", "op": "Mul", "input": ["StatefulPartitionedCall/CollaGANAffluentGenerator/conv2d_101/BiasAdd", "StatefulPartitionedCall/CollaGANAffluentGenerator/instance_normalization/batchnorm/mul"], "attr": {"T": {"type": "DT_FLOAT"}}}, {"name": "StatefulPartitionedCall/CollaGANAffluentGenerator/instance_normalization_8/batchnorm/mul_2", "op": "Mul", "input": ["StatefulPartitionedCall/CollaGANAffluentGenerator/instance_normalization_8/moments/mean", "StatefulPartitionedCall/CollaGANAffluentGenerator/instance_normalization_8/batchnorm/mul"], "attr": {"T": {"type": "DT_FLOAT"}}}, {"name": "StatefulPartitionedCall/CollaGANAffluentGenerator/instance_normalization_8/batchnorm/mul_1", "op": "Mul", "input": ["StatefulPartitionedCall/CollaGANAffluentGenerator/conv2d_113/BiasAdd", "StatefulPartitionedCall/CollaGANAffluentGenerator/instance_normalization_8/batchnorm/mul"], "attr": {"T": {"type": "DT_FLOAT"}}}, {"name": "StatefulPartitionedCall/CollaGANAffluentGenerator/instance_normalization_16/batchnorm/mul_2", "op": "Mul", "input": ["StatefulPartitionedCall/CollaGANAffluentGenerator/instance_normalization_16/moments/mean", "StatefulPartitionedCall/CollaGANAffluentGenerator/instance_normalization_16/batchnorm/mul"], "attr": {"T": {"type": "DT_FLOAT"}}}, {"name": "StatefulPartitionedCall/CollaGANAffluentGenerator/instance_normalization_16/batchnorm/mul_1", "op": "Mul", "input": ["StatefulPartitionedCall/CollaGANAffluentGenerator/conv2d_125/BiasAdd", "StatefulPartitionedCall/CollaGANAffluentGenerator/instance_normalization_16/batchnorm/mul"], "attr": {"T": {"type": "DT_FLOAT"}}}, {"name": "StatefulPartitionedCall/CollaGANAffluentGenerator/instance_normalization_24/batchnorm/mul_2", "op": "Mul", "input": ["StatefulPartitionedCall/CollaGANAffluentGenerator/instance_normalization_24/moments/mean", "StatefulPartitionedCall/CollaGANAffluentGenerator/instance_normalization_24/batchnorm/mul"], "attr": {"T": {"type": "DT_FLOAT"}}}, {"name": "StatefulPartitionedCall/CollaGANAffluentGenerator/instance_normalization_24/batchnorm/mul_1", "op": "Mul", "input": ["StatefulPartitionedCall/CollaGANAffluentGenerator/conv2d_137/BiasAdd", "StatefulPartitionedCall/CollaGANAffluentGenerator/instance_normalization_24/batchnorm/mul"], "attr": {"T": {"type": "DT_FLOAT"}}}, {"name": "StatefulPartitionedCall/CollaGANAffluentGenerator/instance_normalization/batchnorm/sub", "op": "Sub", "input": ["StatefulPartitionedCall/CollaGANAffluentGenerator/instance_normalization/Reshape_1", "StatefulPartitionedCall/CollaGANAffluentGenerator/instance_normalization/batchnorm/mul_2"], "attr": {"T": {"type": "DT_FLOAT"}}}, {"name": "StatefulPartitionedCall/CollaGANAffluentGenerator/instance_normalization_8/batchnorm/sub", "op": "Sub", "input": ["StatefulPartitionedCall/CollaGANAffluentGenerator/instance_normalization_8/Reshape_1", "StatefulPartitionedCall/CollaGANAffluentGenerator/instance_normalization_8/batchnorm/mul_2"], "attr": {"T": {"type": "DT_FLOAT"}}}, {"name": "StatefulPartitionedCall/CollaGANAffluentGenerator/instance_normalization_16/batchnorm/sub", "op": "Sub", "input": ["StatefulPartitionedCall/CollaGANAffluentGenerator/instance_normalization_16/Reshape_1", "StatefulPartitionedCall/CollaGANAffluentGenerator/instance_normalization_16/batchnorm/mul_2"], "attr": {"T": {"type": "DT_FLOAT"}}}, {"name": "StatefulPartitionedCall/CollaGANAffluentGenerator/instance_normalization_24/batchnorm/sub", "op": "Sub", "input": ["StatefulPartitionedCall/CollaGANAffluentGenerator/instance_normalization_24/Reshape_1", "StatefulPartitionedCall/CollaGANAffluentGenerator/instance_normalization_24/batchnorm/mul_2"], "attr": {"T": {"type": "DT_FLOAT"}}}, {"name": "StatefulPartitionedCall/CollaGANAffluentGenerator/instance_normalization/batchnorm/add_1", "op": "AddV2", "input": ["StatefulPartitionedCall/CollaGANAffluentGenerator/instance_normalization/batchnorm/mul_1", "StatefulPartitionedCall/CollaGANAffluentGenerator/instance_normalization/batchnorm/sub"], "attr": {"T": {"type": "DT_FLOAT"}}}, {"name": "StatefulPartitionedCall/CollaGANAffluentGenerator/instance_normalization_8/batchnorm/add_1", "op": "AddV2", "input": ["StatefulPartitionedCall/CollaGANAffluentGenerator/instance_normalization_8/batchnorm/mul_1", "StatefulPartitionedCall/CollaGANAffluentGenerator/instance_normalization_8/batchnorm/sub"], "attr": {"T": {"type": "DT_FLOAT"}}}, {"name": "StatefulPartitionedCall/CollaGANAffluentGenerator/instance_normalization_16/batchnorm/add_1", "op": "AddV2", "input": ["StatefulPartitionedCall/CollaGANAffluentGenerator/instance_normalization_16/batchnorm/mul_1", "StatefulPartitionedCall/CollaGANAffluentGenerator/instance_normalization_16/batchnorm/sub"], "attr": {"T": {"type": "DT_FLOAT"}}}, {"name": "StatefulPartitionedCall/CollaGANAffluentGenerator/instance_normalization_24/batchnorm/add_1", "op": "AddV2", "input": ["StatefulPartitionedCall/CollaGANAffluentGenerator/instance_normalization_24/batchnorm/mul_1", "StatefulPartitionedCall/CollaGANAffluentGenerator/instance_normalization_24/batchnorm/sub"], "attr": {"T": {"type": "DT_FLOAT"}}}, {"name": "StatefulPartitionedCall/CollaGANAffluentGenerator/re_lu/Relu", "op": "Relu", "input": ["StatefulPartitionedCall/CollaGANAffluentGenerator/instance_normalization/batchnorm/add_1"], "attr": {"T": {"type": "DT_FLOAT"}}}, {"name": "StatefulPartitionedCall/CollaGANAffluentGenerator/re_lu_8/Relu", "op": "Relu", "input": ["StatefulPartitionedCall/CollaGANAffluentGenerator/instance_normalization_8/batchnorm/add_1"], "attr": {"T": {"type": "DT_FLOAT"}}}, {"name": "StatefulPartitionedCall/CollaGANAffluentGenerator/re_lu_16/Relu", "op": "Relu", "input": ["StatefulPartitionedCall/CollaGANAffluentGenerator/instance_normalization_16/batchnorm/add_1"], "attr": {"T": {"type": "DT_FLOAT"}}}, {"name": "StatefulPartitionedCall/CollaGANAffluentGenerator/re_lu_24/Relu", "op": "Relu", "input": ["StatefulPartitionedCall/CollaGANAffluentGenerator/instance_normalization_24/batchnorm/add_1"], "attr": {"T": {"type": "DT_FLOAT"}}}, {"name": "StatefulPartitionedCall/CollaGANAffluentGenerator/conv2d_102/BiasAdd", "op": "_FusedConv2D", "input": ["StatefulPartitionedCall/CollaGANAffluentGenerator/re_lu/Relu", "StatefulPartitionedCall/CollaGANAffluentGenerator/conv2d_102/Conv2D/ReadVariableOp", "StatefulPartitionedCall/CollaGANAffluentGenerator/conv2d_102/BiasAdd/ReadVariableOp"], "device": "/device:CPU:0", "attr": {"use_cudnn_on_gpu": {"b": true}, "num_args": {"i": "1"}, "fused_ops": {"list": {"s": ["Qmlhc0FkZA=="]}}, "dilations": {"list": {"i": ["1", "1", "1", "1"]}}, "strides": {"list": {"i": ["1", "1", "1", "1"]}}, "explicit_paddings": {"list": {}}, "padding": {"s": "U0FNRQ=="}, "epsilon": {"f": 0.0}, "T": {"type": "DT_FLOAT"}, "data_format": {"s": "TkhXQw=="}}}, {"name": "StatefulPartitionedCall/CollaGANAffluentGenerator/conv2d_114/BiasAdd", "op": "_FusedConv2D", "input": ["StatefulPartitionedCall/CollaGANAffluentGenerator/re_lu_8/Relu", "StatefulPartitionedCall/CollaGANAffluentGenerator/conv2d_114/Conv2D/ReadVariableOp", "StatefulPartitionedCall/CollaGANAffluentGenerator/conv2d_114/BiasAdd/ReadVariableOp"], "device": "/device:CPU:0", "attr": {"use_cudnn_on_gpu": {"b": true}, "T": {"type": "DT_FLOAT"}, "num_args": {"i": "1"}, "fused_ops": {"list": {"s": ["Qmlhc0FkZA=="]}}, "padding": {"s": "U0FNRQ=="}, "explicit_paddings": {"list": {}}, "data_format": {"s": "TkhXQw=="}, "strides": {"list": {"i": ["1", "1", "1", "1"]}}, "epsilon": {"f": 0.0}, "dilations": {"list": {"i": ["1", "1", "1", "1"]}}}}, {"name": "StatefulPartitionedCall/CollaGANAffluentGenerator/conv2d_126/BiasAdd", "op": "_FusedConv2D", "input": ["StatefulPartitionedCall/CollaGANAffluentGenerator/re_lu_16/Relu", "StatefulPartitionedCall/CollaGANAffluentGenerator/conv2d_126/Conv2D/ReadVariableOp", "StatefulPartitionedCall/CollaGANAffluentGenerator/conv2d_126/BiasAdd/ReadVariableOp"], "device": "/device:CPU:0", "attr": {"padding": {"s": "U0FNRQ=="}, "epsilon": {"f": 0.0}, "data_format": {"s": "TkhXQw=="}, "T": {"type": "DT_FLOAT"}, "fused_ops": {"list": {"s": ["Qmlhc0FkZA=="]}}, "dilations": {"list": {"i": ["1", "1", "1", "1"]}}, "num_args": {"i": "1"}, "use_cudnn_on_gpu": {"b": true}, "strides": {"list": {"i": ["1", "1", "1", "1"]}}, "explicit_paddings": {"list": {}}}}, {"name": "StatefulPartitionedCall/CollaGANAffluentGenerator/conv2d_138/BiasAdd", "op": "_FusedConv2D", "input": ["StatefulPartitionedCall/CollaGANAffluentGenerator/re_lu_24/Relu", "StatefulPartitionedCall/CollaGANAffluentGenerator/conv2d_138/Conv2D/ReadVariableOp", "StatefulPartitionedCall/CollaGANAffluentGenerator/conv2d_138/BiasAdd/ReadVariableOp"], "device": "/device:CPU:0", "attr": {"data_format": {"s": "TkhXQw=="}, "strides": {"list": {"i": ["1", "1", "1", "1"]}}, "epsilon": {"f": 0.0}, "dilations": {"list": {"i": ["1", "1", "1", "1"]}}, "use_cudnn_on_gpu": {"b": true}, "T": {"type": "DT_FLOAT"}, "num_args": {"i": "1"}, "fused_ops": {"list": {"s": ["Qmlhc0FkZA=="]}}, "padding": {"s": "U0FNRQ=="}, "explicit_paddings": {"list": {}}}}, {"name": "StatefulPartitionedCall/CollaGANAffluentGenerator/instance_normalization_1/moments/mean", "op": "Mean", "input": ["StatefulPartitionedCall/CollaGANAffluentGenerator/conv2d_102/BiasAdd", "StatefulPartitionedCall/CollaGANAffluentGenerator/instance_normalization_1/moments/mean/reduction_indices"], "attr": {"Tidx": {"type": "DT_INT32"}, "T": {"type": "DT_FLOAT"}, "keep_dims": {"b": true}}}, {"name": "StatefulPartitionedCall/CollaGANAffluentGenerator/instance_normalization_9/moments/mean", "op": "Mean", "input": ["StatefulPartitionedCall/CollaGANAffluentGenerator/conv2d_114/BiasAdd", "StatefulPartitionedCall/CollaGANAffluentGenerator/instance_normalization_9/moments/mean/reduction_indices"], "attr": {"keep_dims": {"b": true}, "Tidx": {"type": "DT_INT32"}, "T": {"type": "DT_FLOAT"}}}, {"name": "StatefulPartitionedCall/CollaGANAffluentGenerator/instance_normalization_17/moments/mean", "op": "Mean", "input": ["StatefulPartitionedCall/CollaGANAffluentGenerator/conv2d_126/BiasAdd", "StatefulPartitionedCall/CollaGANAffluentGenerator/instance_normalization_17/moments/mean/reduction_indices"], "attr": {"keep_dims": {"b": true}, "Tidx": {"type": "DT_INT32"}, "T": {"type": "DT_FLOAT"}}}, {"name": "StatefulPartitionedCall/CollaGANAffluentGenerator/instance_normalization_25/moments/mean", "op": "Mean", "input": ["StatefulPartitionedCall/CollaGANAffluentGenerator/conv2d_138/BiasAdd", "StatefulPartitionedCall/CollaGANAffluentGenerator/instance_normalization_25/moments/mean/reduction_indices"], "attr": {"keep_dims": {"b": true}, "T": {"type": "DT_FLOAT"}, "Tidx": {"type": "DT_INT32"}}}, {"name": "StatefulPartitionedCall/CollaGANAffluentGenerator/instance_normalization_1/moments/SquaredDifference", "op": "SquaredDifference", "input": ["StatefulPartitionedCall/CollaGANAffluentGenerator/conv2d_102/BiasAdd", "StatefulPartitionedCall/CollaGANAffluentGenerator/instance_normalization_1/moments/mean"], "attr": {"T": {"type": "DT_FLOAT"}}}, {"name": "StatefulPartitionedCall/CollaGANAffluentGenerator/instance_normalization_9/moments/SquaredDifference", "op": "SquaredDifference", "input": ["StatefulPartitionedCall/CollaGANAffluentGenerator/conv2d_114/BiasAdd", "StatefulPartitionedCall/CollaGANAffluentGenerator/instance_normalization_9/moments/mean"], "attr": {"T": {"type": "DT_FLOAT"}}}, {"name": "StatefulPartitionedCall/CollaGANAffluentGenerator/instance_normalization_17/moments/SquaredDifference", "op": "SquaredDifference", "input": ["StatefulPartitionedCall/CollaGANAffluentGenerator/conv2d_126/BiasAdd", "StatefulPartitionedCall/CollaGANAffluentGenerator/instance_normalization_17/moments/mean"], "attr": {"T": {"type": "DT_FLOAT"}}}, {"name": "StatefulPartitionedCall/CollaGANAffluentGenerator/instance_normalization_25/moments/SquaredDifference", "op": "SquaredDifference", "input": ["StatefulPartitionedCall/CollaGANAffluentGenerator/conv2d_138/BiasAdd", "StatefulPartitionedCall/CollaGANAffluentGenerator/instance_normalization_25/moments/mean"], "attr": {"T": {"type": "DT_FLOAT"}}}, {"name": "StatefulPartitionedCall/CollaGANAffluentGenerator/instance_normalization_1/moments/variance", "op": "Mean", "input": ["StatefulPartitionedCall/CollaGANAffluentGenerator/instance_normalization_1/moments/SquaredDifference", "StatefulPartitionedCall/CollaGANAffluentGenerator/instance_normalization_1/moments/variance/reduction_indices"], "attr": {"keep_dims": {"b": true}, "Tidx": {"type": "DT_INT32"}, "T": {"type": "DT_FLOAT"}}}, {"name": "StatefulPartitionedCall/CollaGANAffluentGenerator/instance_normalization_9/moments/variance", "op": "Mean", "input": ["StatefulPartitionedCall/CollaGANAffluentGenerator/instance_normalization_9/moments/SquaredDifference", "StatefulPartitionedCall/CollaGANAffluentGenerator/instance_normalization_9/moments/variance/reduction_indices"], "attr": {"keep_dims": {"b": true}, "T": {"type": "DT_FLOAT"}, "Tidx": {"type": "DT_INT32"}}}, {"name": "StatefulPartitionedCall/CollaGANAffluentGenerator/instance_normalization_17/moments/variance", "op": "Mean", "input": ["StatefulPartitionedCall/CollaGANAffluentGenerator/instance_normalization_17/moments/SquaredDifference", "StatefulPartitionedCall/CollaGANAffluentGenerator/instance_normalization_17/moments/variance/reduction_indices"], "attr": {"Tidx": {"type": "DT_INT32"}, "keep_dims": {"b": true}, "T": {"type": "DT_FLOAT"}}}, {"name": "StatefulPartitionedCall/CollaGANAffluentGenerator/instance_normalization_25/moments/variance", "op": "Mean", "input": ["StatefulPartitionedCall/CollaGANAffluentGenerator/instance_normalization_25/moments/SquaredDifference", "StatefulPartitionedCall/CollaGANAffluentGenerator/instance_normalization_25/moments/variance/reduction_indices"], "attr": {"keep_dims": {"b": true}, "Tidx": {"type": "DT_INT32"}, "T": {"type": "DT_FLOAT"}}}, {"name": "StatefulPartitionedCall/CollaGANAffluentGenerator/instance_normalization_1/batchnorm/add", "op": "AddV2", "input": ["StatefulPartitionedCall/CollaGANAffluentGenerator/instance_normalization_1/moments/variance", "StatefulPartitionedCall/CollaGANAffluentGenerator/instance_normalization_1/batchnorm/add/y"], "attr": {"T": {"type": "DT_FLOAT"}}}, {"name": "StatefulPartitionedCall/CollaGANAffluentGenerator/instance_normalization_9/batchnorm/add", "op": "AddV2", "input": ["StatefulPartitionedCall/CollaGANAffluentGenerator/instance_normalization_9/moments/variance", "StatefulPartitionedCall/CollaGANAffluentGenerator/instance_normalization_9/batchnorm/add/y"], "attr": {"T": {"type": "DT_FLOAT"}}}, {"name": "StatefulPartitionedCall/CollaGANAffluentGenerator/instance_normalization_17/batchnorm/add", "op": "AddV2", "input": ["StatefulPartitionedCall/CollaGANAffluentGenerator/instance_normalization_17/moments/variance", "StatefulPartitionedCall/CollaGANAffluentGenerator/instance_normalization_17/batchnorm/add/y"], "attr": {"T": {"type": "DT_FLOAT"}}}, {"name": "StatefulPartitionedCall/CollaGANAffluentGenerator/instance_normalization_25/batchnorm/add", "op": "AddV2", "input": ["StatefulPartitionedCall/CollaGANAffluentGenerator/instance_normalization_25/moments/variance", "StatefulPartitionedCall/CollaGANAffluentGenerator/instance_normalization_25/batchnorm/add/y"], "attr": {"T": {"type": "DT_FLOAT"}}}, {"name": "StatefulPartitionedCall/CollaGANAffluentGenerator/instance_normalization_1/batchnorm/Rsqrt", "op": "Rsqrt", "input": ["StatefulPartitionedCall/CollaGANAffluentGenerator/instance_normalization_1/batchnorm/add"], "attr": {"T": {"type": "DT_FLOAT"}}}, {"name": "StatefulPartitionedCall/CollaGANAffluentGenerator/instance_normalization_9/batchnorm/Rsqrt", "op": "Rsqrt", "input": ["StatefulPartitionedCall/CollaGANAffluentGenerator/instance_normalization_9/batchnorm/add"], "attr": {"T": {"type": "DT_FLOAT"}}}, {"name": "StatefulPartitionedCall/CollaGANAffluentGenerator/instance_normalization_17/batchnorm/Rsqrt", "op": "Rsqrt", "input": ["StatefulPartitionedCall/CollaGANAffluentGenerator/instance_normalization_17/batchnorm/add"], "attr": {"T": {"type": "DT_FLOAT"}}}, {"name": "StatefulPartitionedCall/CollaGANAffluentGenerator/instance_normalization_25/batchnorm/Rsqrt", "op": "Rsqrt", "input": ["StatefulPartitionedCall/CollaGANAffluentGenerator/instance_normalization_25/batchnorm/add"], "attr": {"T": {"type": "DT_FLOAT"}}}, {"name": "StatefulPartitionedCall/CollaGANAffluentGenerator/instance_normalization_1/batchnorm/mul", "op": "Mul", "input": ["StatefulPartitionedCall/CollaGANAffluentGenerator/instance_normalization_1/batchnorm/Rsqrt", "StatefulPartitionedCall/CollaGANAffluentGenerator/instance_normalization_1/Reshape"], "attr": {"T": {"type": "DT_FLOAT"}}}, {"name": "StatefulPartitionedCall/CollaGANAffluentGenerator/instance_normalization_9/batchnorm/mul", "op": "Mul", "input": ["StatefulPartitionedCall/CollaGANAffluentGenerator/instance_normalization_9/batchnorm/Rsqrt", "StatefulPartitionedCall/CollaGANAffluentGenerator/instance_normalization_9/Reshape"], "attr": {"T": {"type": "DT_FLOAT"}}}, {"name": "StatefulPartitionedCall/CollaGANAffluentGenerator/instance_normalization_17/batchnorm/mul", "op": "Mul", "input": ["StatefulPartitionedCall/CollaGANAffluentGenerator/instance_normalization_17/batchnorm/Rsqrt", "StatefulPartitionedCall/CollaGANAffluentGenerator/instance_normalization_17/Reshape"], "attr": {"T": {"type": "DT_FLOAT"}}}, {"name": "StatefulPartitionedCall/CollaGANAffluentGenerator/instance_normalization_25/batchnorm/mul", "op": "Mul", "input": ["StatefulPartitionedCall/CollaGANAffluentGenerator/instance_normalization_25/batchnorm/Rsqrt", "StatefulPartitionedCall/CollaGANAffluentGenerator/instance_normalization_25/Reshape"], "attr": {"T": {"type": "DT_FLOAT"}}}, {"name": "StatefulPartitionedCall/CollaGANAffluentGenerator/instance_normalization_1/batchnorm/mul_2", "op": "Mul", "input": ["StatefulPartitionedCall/CollaGANAffluentGenerator/instance_normalization_1/moments/mean", "StatefulPartitionedCall/CollaGANAffluentGenerator/instance_normalization_1/batchnorm/mul"], "attr": {"T": {"type": "DT_FLOAT"}}}, {"name": "StatefulPartitionedCall/CollaGANAffluentGenerator/instance_normalization_1/batchnorm/mul_1", "op": "Mul", "input": ["StatefulPartitionedCall/CollaGANAffluentGenerator/conv2d_102/BiasAdd", "StatefulPartitionedCall/CollaGANAffluentGenerator/instance_normalization_1/batchnorm/mul"], "attr": {"T": {"type": "DT_FLOAT"}}}, {"name": "StatefulPartitionedCall/CollaGANAffluentGenerator/instance_normalization_9/batchnorm/mul_2", "op": "Mul", "input": ["StatefulPartitionedCall/CollaGANAffluentGenerator/instance_normalization_9/moments/mean", "StatefulPartitionedCall/CollaGANAffluentGenerator/instance_normalization_9/batchnorm/mul"], "attr": {"T": {"type": "DT_FLOAT"}}}, {"name": "StatefulPartitionedCall/CollaGANAffluentGenerator/instance_normalization_9/batchnorm/mul_1", "op": "Mul", "input": ["StatefulPartitionedCall/CollaGANAffluentGenerator/conv2d_114/BiasAdd", "StatefulPartitionedCall/CollaGANAffluentGenerator/instance_normalization_9/batchnorm/mul"], "attr": {"T": {"type": "DT_FLOAT"}}}, {"name": "StatefulPartitionedCall/CollaGANAffluentGenerator/instance_normalization_17/batchnorm/mul_2", "op": "Mul", "input": ["StatefulPartitionedCall/CollaGANAffluentGenerator/instance_normalization_17/moments/mean", "StatefulPartitionedCall/CollaGANAffluentGenerator/instance_normalization_17/batchnorm/mul"], "attr": {"T": {"type": "DT_FLOAT"}}}, {"name": "StatefulPartitionedCall/CollaGANAffluentGenerator/instance_normalization_17/batchnorm/mul_1", "op": "Mul", "input": ["StatefulPartitionedCall/CollaGANAffluentGenerator/conv2d_126/BiasAdd", "StatefulPartitionedCall/CollaGANAffluentGenerator/instance_normalization_17/batchnorm/mul"], "attr": {"T": {"type": "DT_FLOAT"}}}, {"name": "StatefulPartitionedCall/CollaGANAffluentGenerator/instance_normalization_25/batchnorm/mul_2", "op": "Mul", "input": ["StatefulPartitionedCall/CollaGANAffluentGenerator/instance_normalization_25/moments/mean", "StatefulPartitionedCall/CollaGANAffluentGenerator/instance_normalization_25/batchnorm/mul"], "attr": {"T": {"type": "DT_FLOAT"}}}, {"name": "StatefulPartitionedCall/CollaGANAffluentGenerator/instance_normalization_25/batchnorm/mul_1", "op": "Mul", "input": ["StatefulPartitionedCall/CollaGANAffluentGenerator/conv2d_138/BiasAdd", "StatefulPartitionedCall/CollaGANAffluentGenerator/instance_normalization_25/batchnorm/mul"], "attr": {"T": {"type": "DT_FLOAT"}}}, {"name": "StatefulPartitionedCall/CollaGANAffluentGenerator/instance_normalization_1/batchnorm/sub", "op": "Sub", "input": ["StatefulPartitionedCall/CollaGANAffluentGenerator/instance_normalization_1/Reshape_1", "StatefulPartitionedCall/CollaGANAffluentGenerator/instance_normalization_1/batchnorm/mul_2"], "attr": {"T": {"type": "DT_FLOAT"}}}, {"name": "StatefulPartitionedCall/CollaGANAffluentGenerator/instance_normalization_9/batchnorm/sub", "op": "Sub", "input": ["StatefulPartitionedCall/CollaGANAffluentGenerator/instance_normalization_9/Reshape_1", "StatefulPartitionedCall/CollaGANAffluentGenerator/instance_normalization_9/batchnorm/mul_2"], "attr": {"T": {"type": "DT_FLOAT"}}}, {"name": "StatefulPartitionedCall/CollaGANAffluentGenerator/instance_normalization_17/batchnorm/sub", "op": "Sub", "input": ["StatefulPartitionedCall/CollaGANAffluentGenerator/instance_normalization_17/Reshape_1", "StatefulPartitionedCall/CollaGANAffluentGenerator/instance_normalization_17/batchnorm/mul_2"], "attr": {"T": {"type": "DT_FLOAT"}}}, {"name": "StatefulPartitionedCall/CollaGANAffluentGenerator/instance_normalization_25/batchnorm/sub", "op": "Sub", "input": ["StatefulPartitionedCall/CollaGANAffluentGenerator/instance_normalization_25/Reshape_1", "StatefulPartitionedCall/CollaGANAffluentGenerator/instance_normalization_25/batchnorm/mul_2"], "attr": {"T": {"type": "DT_FLOAT"}}}, {"name": "StatefulPartitionedCall/CollaGANAffluentGenerator/instance_normalization_1/batchnorm/add_1", "op": "AddV2", "input": ["StatefulPartitionedCall/CollaGANAffluentGenerator/instance_normalization_1/batchnorm/mul_1", "StatefulPartitionedCall/CollaGANAffluentGenerator/instance_normalization_1/batchnorm/sub"], "attr": {"T": {"type": "DT_FLOAT"}}}, {"name": "StatefulPartitionedCall/CollaGANAffluentGenerator/instance_normalization_9/batchnorm/add_1", "op": "AddV2", "input": ["StatefulPartitionedCall/CollaGANAffluentGenerator/instance_normalization_9/batchnorm/mul_1", "StatefulPartitionedCall/CollaGANAffluentGenerator/instance_normalization_9/batchnorm/sub"], "attr": {"T": {"type": "DT_FLOAT"}}}, {"name": "StatefulPartitionedCall/CollaGANAffluentGenerator/instance_normalization_17/batchnorm/add_1", "op": "AddV2", "input": ["StatefulPartitionedCall/CollaGANAffluentGenerator/instance_normalization_17/batchnorm/mul_1", "StatefulPartitionedCall/CollaGANAffluentGenerator/instance_normalization_17/batchnorm/sub"], "attr": {"T": {"type": "DT_FLOAT"}}}, {"name": "StatefulPartitionedCall/CollaGANAffluentGenerator/instance_normalization_25/batchnorm/add_1", "op": "AddV2", "input": ["StatefulPartitionedCall/CollaGANAffluentGenerator/instance_normalization_25/batchnorm/mul_1", "StatefulPartitionedCall/CollaGANAffluentGenerator/instance_normalization_25/batchnorm/sub"], "attr": {"T": {"type": "DT_FLOAT"}}}, {"name": "StatefulPartitionedCall/CollaGANAffluentGenerator/re_lu_1/Relu", "op": "Relu", "input": ["StatefulPartitionedCall/CollaGANAffluentGenerator/instance_normalization_1/batchnorm/add_1"], "attr": {"T": {"type": "DT_FLOAT"}}}, {"name": "StatefulPartitionedCall/CollaGANAffluentGenerator/re_lu_9/Relu", "op": "Relu", "input": ["StatefulPartitionedCall/CollaGANAffluentGenerator/instance_normalization_9/batchnorm/add_1"], "attr": {"T": {"type": "DT_FLOAT"}}}, {"name": "StatefulPartitionedCall/CollaGANAffluentGenerator/re_lu_17/Relu", "op": "Relu", "input": ["StatefulPartitionedCall/CollaGANAffluentGenerator/instance_normalization_17/batchnorm/add_1"], "attr": {"T": {"type": "DT_FLOAT"}}}, {"name": "StatefulPartitionedCall/CollaGANAffluentGenerator/re_lu_25/Relu", "op": "Relu", "input": ["StatefulPartitionedCall/CollaGANAffluentGenerator/instance_normalization_25/batchnorm/add_1"], "attr": {"T": {"type": "DT_FLOAT"}}}, {"name": "StatefulPartitionedCall/CollaGANAffluentGenerator/conv2d_103/Conv2D", "op": "Conv2D", "input": ["StatefulPartitionedCall/CollaGANAffluentGenerator/re_lu_1/Relu", "StatefulPartitionedCall/CollaGANAffluentGenerator/conv2d_103/Conv2D/ReadVariableOp"], "device": "/device:CPU:0", "attr": {"use_cudnn_on_gpu": {"b": true}, "dilations": {"list": {"i": ["1", "1", "1", "1"]}}, "explicit_paddings": {"list": {}}, "T": {"type": "DT_FLOAT"}, "padding": {"s": "U0FNRQ=="}, "strides": {"list": {"i": ["1", "2", "2", "1"]}}, "data_format": {"s": "TkhXQw=="}}}, {"name": "StatefulPartitionedCall/CollaGANAffluentGenerator/conv2d_115/Conv2D", "op": "Conv2D", "input": ["StatefulPartitionedCall/CollaGANAffluentGenerator/re_lu_9/Relu", "StatefulPartitionedCall/CollaGANAffluentGenerator/conv2d_115/Conv2D/ReadVariableOp"], "device": "/device:CPU:0", "attr": {"T": {"type": "DT_FLOAT"}, "data_format": {"s": "TkhXQw=="}, "dilations": {"list": {"i": ["1", "1", "1", "1"]}}, "use_cudnn_on_gpu": {"b": true}, "strides": {"list": {"i": ["1", "2", "2", "1"]}}, "padding": {"s": "U0FNRQ=="}, "explicit_paddings": {"list": {}}}}, {"name": "StatefulPartitionedCall/CollaGANAffluentGenerator/conv2d_127/Conv2D", "op": "Conv2D", "input": ["StatefulPartitionedCall/CollaGANAffluentGenerator/re_lu_17/Relu", "StatefulPartitionedCall/CollaGANAffluentGenerator/conv2d_127/Conv2D/ReadVariableOp"], "device": "/device:CPU:0", "attr": {"T": {"type": "DT_FLOAT"}, "explicit_paddings": {"list": {}}, "data_format": {"s": "TkhXQw=="}, "strides": {"list": {"i": ["1", "2", "2", "1"]}}, "dilations": {"list": {"i": ["1", "1", "1", "1"]}}, "use_cudnn_on_gpu": {"b": true}, "padding": {"s": "U0FNRQ=="}}}, {"name": "StatefulPartitionedCall/CollaGANAffluentGenerator/conv2d_139/Conv2D", "op": "Conv2D", "input": ["StatefulPartitionedCall/CollaGANAffluentGenerator/re_lu_25/Relu", "StatefulPartitionedCall/CollaGANAffluentGenerator/conv2d_139/Conv2D/ReadVariableOp"], "device": "/device:CPU:0", "attr": {"explicit_paddings": {"list": {}}, "data_format": {"s": "TkhXQw=="}, "dilations": {"list": {"i": ["1", "1", "1", "1"]}}, "use_cudnn_on_gpu": {"b": true}, "padding": {"s": "U0FNRQ=="}, "strides": {"list": {"i": ["1", "2", "2", "1"]}}, "T": {"type": "DT_FLOAT"}}}, {"name": "StatefulPartitionedCall/CollaGANAffluentGenerator/conv2d_104/BiasAdd", "op": "_FusedConv2D", "input": ["StatefulPartitionedCall/CollaGANAffluentGenerator/conv2d_103/Conv2D", "StatefulPartitionedCall/CollaGANAffluentGenerator/conv2d_104/Conv2D/ReadVariableOp", "StatefulPartitionedCall/CollaGANAffluentGenerator/conv2d_104/BiasAdd/ReadVariableOp"], "device": "/device:CPU:0", "attr": {"strides": {"list": {"i": ["1", "1", "1", "1"]}}, "dilations": {"list": {"i": ["1", "1", "1", "1"]}}, "use_cudnn_on_gpu": {"b": true}, "num_args": {"i": "1"}, "fused_ops": {"list": {"s": ["Qmlhc0FkZA=="]}}, "padding": {"s": "U0FNRQ=="}, "explicit_paddings": {"list": {}}, "data_format": {"s": "TkhXQw=="}, "epsilon": {"f": 0.0}, "T": {"type": "DT_FLOAT"}}}, {"name": "StatefulPartitionedCall/CollaGANAffluentGenerator/conv2d_116/BiasAdd", "op": "_FusedConv2D", "input": ["StatefulPartitionedCall/CollaGANAffluentGenerator/conv2d_115/Conv2D", "StatefulPartitionedCall/CollaGANAffluentGenerator/conv2d_116/Conv2D/ReadVariableOp", "StatefulPartitionedCall/CollaGANAffluentGenerator/conv2d_116/BiasAdd/ReadVariableOp"], "device": "/device:CPU:0", "attr": {"T": {"type": "DT_FLOAT"}, "fused_ops": {"list": {"s": ["Qmlhc0FkZA=="]}}, "strides": {"list": {"i": ["1", "1", "1", "1"]}}, "explicit_paddings": {"list": {}}, "epsilon": {"f": 0.0}, "data_format": {"s": "TkhXQw=="}, "dilations": {"list": {"i": ["1", "1", "1", "1"]}}, "num_args": {"i": "1"}, "padding": {"s": "U0FNRQ=="}, "use_cudnn_on_gpu": {"b": true}}}, {"name": "StatefulPartitionedCall/CollaGANAffluentGenerator/conv2d_128/BiasAdd", "op": "_FusedConv2D", "input": ["StatefulPartitionedCall/CollaGANAffluentGenerator/conv2d_127/Conv2D", "StatefulPartitionedCall/CollaGANAffluentGenerator/conv2d_128/Conv2D/ReadVariableOp", "StatefulPartitionedCall/CollaGANAffluentGenerator/conv2d_128/BiasAdd/ReadVariableOp"], "device": "/device:CPU:0", "attr": {"strides": {"list": {"i": ["1", "1", "1", "1"]}}, "padding": {"s": "U0FNRQ=="}, "epsilon": {"f": 0.0}, "dilations": {"list": {"i": ["1", "1", "1", "1"]}}, "explicit_paddings": {"list": {}}, "num_args": {"i": "1"}, "data_format": {"s": "TkhXQw=="}, "fused_ops": {"list": {"s": ["Qmlhc0FkZA=="]}}, "T": {"type": "DT_FLOAT"}, "use_cudnn_on_gpu": {"b": true}}}, {"name": "StatefulPartitionedCall/CollaGANAffluentGenerator/conv2d_140/BiasAdd", "op": "_FusedConv2D", "input": ["StatefulPartitionedCall/CollaGANAffluentGenerator/conv2d_139/Conv2D", "StatefulPartitionedCall/CollaGANAffluentGenerator/conv2d_140/Conv2D/ReadVariableOp", "StatefulPartitionedCall/CollaGANAffluentGenerator/conv2d_140/BiasAdd/ReadVariableOp"], "device": "/device:CPU:0", "attr": {"fused_ops": {"list": {"s": ["Qmlhc0FkZA=="]}}, "T": {"type": "DT_FLOAT"}, "padding": {"s": "U0FNRQ=="}, "strides": {"list": {"i": ["1", "1", "1", "1"]}}, "epsilon": {"f": 0.0}, "data_format": {"s": "TkhXQw=="}, "use_cudnn_on_gpu": {"b": true}, "num_args": {"i": "1"}, "dilations": {"list": {"i": ["1", "1", "1", "1"]}}, "explicit_paddings": {"list": {}}}}, {"name": "StatefulPartitionedCall/CollaGANAffluentGenerator/instance_normalization_2/moments/mean", "op": "Mean", "input": ["StatefulPartitionedCall/CollaGANAffluentGenerator/conv2d_104/BiasAdd", "StatefulPartitionedCall/CollaGANAffluentGenerator/instance_normalization_2/moments/mean/reduction_indices"], "attr": {"keep_dims": {"b": true}, "Tidx": {"type": "DT_INT32"}, "T": {"type": "DT_FLOAT"}}}, {"name": "StatefulPartitionedCall/CollaGANAffluentGenerator/instance_normalization_10/moments/mean", "op": "Mean", "input": ["StatefulPartitionedCall/CollaGANAffluentGenerator/conv2d_116/BiasAdd", "StatefulPartitionedCall/CollaGANAffluentGenerator/instance_normalization_10/moments/mean/reduction_indices"], "attr": {"T": {"type": "DT_FLOAT"}, "Tidx": {"type": "DT_INT32"}, "keep_dims": {"b": true}}}, {"name": "StatefulPartitionedCall/CollaGANAffluentGenerator/instance_normalization_18/moments/mean", "op": "Mean", "input": ["StatefulPartitionedCall/CollaGANAffluentGenerator/conv2d_128/BiasAdd", "StatefulPartitionedCall/CollaGANAffluentGenerator/instance_normalization_18/moments/mean/reduction_indices"], "attr": {"keep_dims": {"b": true}, "Tidx": {"type": "DT_INT32"}, "T": {"type": "DT_FLOAT"}}}, {"name": "StatefulPartitionedCall/CollaGANAffluentGenerator/instance_normalization_26/moments/mean", "op": "Mean", "input": ["StatefulPartitionedCall/CollaGANAffluentGenerator/conv2d_140/BiasAdd", "StatefulPartitionedCall/CollaGANAffluentGenerator/instance_normalization_26/moments/mean/reduction_indices"], "attr": {"Tidx": {"type": "DT_INT32"}, "T": {"type": "DT_FLOAT"}, "keep_dims": {"b": true}}}, {"name": "StatefulPartitionedCall/CollaGANAffluentGenerator/instance_normalization_2/moments/SquaredDifference", "op": "SquaredDifference", "input": ["StatefulPartitionedCall/CollaGANAffluentGenerator/conv2d_104/BiasAdd", "StatefulPartitionedCall/CollaGANAffluentGenerator/instance_normalization_2/moments/mean"], "attr": {"T": {"type": "DT_FLOAT"}}}, {"name": "StatefulPartitionedCall/CollaGANAffluentGenerator/instance_normalization_10/moments/SquaredDifference", "op": "SquaredDifference", "input": ["StatefulPartitionedCall/CollaGANAffluentGenerator/conv2d_116/BiasAdd", "StatefulPartitionedCall/CollaGANAffluentGenerator/instance_normalization_10/moments/mean"], "attr": {"T": {"type": "DT_FLOAT"}}}, {"name": "StatefulPartitionedCall/CollaGANAffluentGenerator/instance_normalization_18/moments/SquaredDifference", "op": "SquaredDifference", "input": ["StatefulPartitionedCall/CollaGANAffluentGenerator/conv2d_128/BiasAdd", "StatefulPartitionedCall/CollaGANAffluentGenerator/instance_normalization_18/moments/mean"], "attr": {"T": {"type": "DT_FLOAT"}}}, {"name": "StatefulPartitionedCall/CollaGANAffluentGenerator/instance_normalization_26/moments/SquaredDifference", "op": "SquaredDifference", "input": ["StatefulPartitionedCall/CollaGANAffluentGenerator/conv2d_140/BiasAdd", "StatefulPartitionedCall/CollaGANAffluentGenerator/instance_normalization_26/moments/mean"], "attr": {"T": {"type": "DT_FLOAT"}}}, {"name": "StatefulPartitionedCall/CollaGANAffluentGenerator/instance_normalization_2/moments/variance", "op": "Mean", "input": ["StatefulPartitionedCall/CollaGANAffluentGenerator/instance_normalization_2/moments/SquaredDifference", "StatefulPartitionedCall/CollaGANAffluentGenerator/instance_normalization_2/moments/variance/reduction_indices"], "attr": {"T": {"type": "DT_FLOAT"}, "keep_dims": {"b": true}, "Tidx": {"type": "DT_INT32"}}}, {"name": "StatefulPartitionedCall/CollaGANAffluentGenerator/instance_normalization_10/moments/variance", "op": "Mean", "input": ["StatefulPartitionedCall/CollaGANAffluentGenerator/instance_normalization_10/moments/SquaredDifference", "StatefulPartitionedCall/CollaGANAffluentGenerator/instance_normalization_10/moments/variance/reduction_indices"], "attr": {"T": {"type": "DT_FLOAT"}, "Tidx": {"type": "DT_INT32"}, "keep_dims": {"b": true}}}, {"name": "StatefulPartitionedCall/CollaGANAffluentGenerator/instance_normalization_18/moments/variance", "op": "Mean", "input": ["StatefulPartitionedCall/CollaGANAffluentGenerator/instance_normalization_18/moments/SquaredDifference", "StatefulPartitionedCall/CollaGANAffluentGenerator/instance_normalization_18/moments/variance/reduction_indices"], "attr": {"Tidx": {"type": "DT_INT32"}, "T": {"type": "DT_FLOAT"}, "keep_dims": {"b": true}}}, {"name": "StatefulPartitionedCall/CollaGANAffluentGenerator/instance_normalization_26/moments/variance", "op": "Mean", "input": ["StatefulPartitionedCall/CollaGANAffluentGenerator/instance_normalization_26/moments/SquaredDifference", "StatefulPartitionedCall/CollaGANAffluentGenerator/instance_normalization_26/moments/variance/reduction_indices"], "attr": {"keep_dims": {"b": true}, "T": {"type": "DT_FLOAT"}, "Tidx": {"type": "DT_INT32"}}}, {"name": "StatefulPartitionedCall/CollaGANAffluentGenerator/instance_normalization_2/batchnorm/add", "op": "AddV2", "input": ["StatefulPartitionedCall/CollaGANAffluentGenerator/instance_normalization_2/moments/variance", "StatefulPartitionedCall/CollaGANAffluentGenerator/instance_normalization_2/batchnorm/add/y"], "attr": {"T": {"type": "DT_FLOAT"}}}, {"name": "StatefulPartitionedCall/CollaGANAffluentGenerator/instance_normalization_10/batchnorm/add", "op": "AddV2", "input": ["StatefulPartitionedCall/CollaGANAffluentGenerator/instance_normalization_10/moments/variance", "StatefulPartitionedCall/CollaGANAffluentGenerator/instance_normalization_10/batchnorm/add/y"], "attr": {"T": {"type": "DT_FLOAT"}}}, {"name": "StatefulPartitionedCall/CollaGANAffluentGenerator/instance_normalization_18/batchnorm/add", "op": "AddV2", "input": ["StatefulPartitionedCall/CollaGANAffluentGenerator/instance_normalization_18/moments/variance", "StatefulPartitionedCall/CollaGANAffluentGenerator/instance_normalization_18/batchnorm/add/y"], "attr": {"T": {"type": "DT_FLOAT"}}}, {"name": "StatefulPartitionedCall/CollaGANAffluentGenerator/instance_normalization_26/batchnorm/add", "op": "AddV2", "input": ["StatefulPartitionedCall/CollaGANAffluentGenerator/instance_normalization_26/moments/variance", "StatefulPartitionedCall/CollaGANAffluentGenerator/instance_normalization_26…
NAffluentGenerator/instance_normalization_38/Reshape_1", "shape": [1, 1, 1, 128], "dtype": "float32"}, {"name": "StatefulPartitionedCall/CollaGANAffluentGenerator/conv2d_transpose_2/strided_slice/stack", "shape": [1], "dtype": "int32"}, {"name": "StatefulPartitionedCall/CollaGANAffluentGenerator/conv2d_transpose_2/strided_slice/stack_1", "shape": [1], "dtype": "int32"}, {"name": "StatefulPartitionedCall/CollaGANAffluentGenerator/conv2d_transpose_2/strided_slice/stack_2", "shape": [1], "dtype": "int32"}, {"name": "StatefulPartitionedCall/CollaGANAffluentGenerator/conv2d_transpose_2/stack/1", "shape": [], "dtype": "int32"}, {"name": "StatefulPartitionedCall/CollaGANAffluentGenerator/conv2d_transpose_2/stack/2", "shape": [], "dtype": "int32"}, {"name": "StatefulPartitionedCall/CollaGANAffluentGenerator/conv2d_transpose_2/stack/3", "shape": [], "dtype": "int32"}, {"name": "StatefulPartitionedCall/CollaGANAffluentGenerator/conv2d_transpose_2/conv2d_transpose/ReadVariableOp", "shape": [2, 2, 128, 256], "dtype": "float32"}, {"name": "StatefulPartitionedCall/CollaGANAffluentGenerator/instance_normalization_37/Reshape_1", "shape": [1, 1, 1, 256], "dtype": "float32"}, {"name": "StatefulPartitionedCall/CollaGANAffluentGenerator/instance_normalization_36/Reshape_1", "shape": [1, 1, 1, 256], "dtype": "float32"}, {"name": "StatefulPartitionedCall/CollaGANAffluentGenerator/conv2d_transpose_1/strided_slice/stack", "shape": [1], "dtype": "int32"}, {"name": "StatefulPartitionedCall/CollaGANAffluentGenerator/conv2d_transpose_1/strided_slice/stack_1", "shape": [1], "dtype": "int32"}, {"name": "StatefulPartitionedCall/CollaGANAffluentGenerator/conv2d_transpose_1/strided_slice/stack_2", "shape": [1], "dtype": "int32"}, {"name": "StatefulPartitionedCall/CollaGANAffluentGenerator/conv2d_transpose_1/stack/1", "shape": [], "dtype": "int32"}, {"name": "StatefulPartitionedCall/CollaGANAffluentGenerator/conv2d_transpose_1/stack/2", "shape": [], "dtype": "int32"}, {"name": "StatefulPartitionedCall/CollaGANAffluentGenerator/conv2d_transpose_1/stack/3", "shape": [], "dtype": "int32"}, {"name": "StatefulPartitionedCall/CollaGANAffluentGenerator/conv2d_transpose_1/conv2d_transpose/ReadVariableOp", "shape": [2, 2, 256, 512], "dtype": "float32"}, {"name": "StatefulPartitionedCall/CollaGANAffluentGenerator/instance_normalization_35/Reshape_1", "shape": [1, 1, 1, 512], "dtype": "float32"}, {"name": "StatefulPartitionedCall/CollaGANAffluentGenerator/instance_normalization_34/Reshape_1", "shape": [1, 1, 1, 512], "dtype": "float32"}, {"name": "StatefulPartitionedCall/CollaGANAffluentGenerator/conv2d_transpose/strided_slice/stack", "shape": [1], "dtype": "int32"}, {"name": "StatefulPartitionedCall/CollaGANAffluentGenerator/conv2d_transpose/strided_slice/stack_1", "shape": [1], "dtype": "int32"}, {"name": "StatefulPartitionedCall/CollaGANAffluentGenerator/conv2d_transpose/strided_slice/stack_2", "shape": [1], "dtype": "int32"}, {"name": "StatefulPartitionedCall/CollaGANAffluentGenerator/conv2d_transpose/stack/1", "shape": [], "dtype": "int32"}, {"name": "StatefulPartitionedCall/CollaGANAffluentGenerator/conv2d_transpose/stack/2", "shape": [], "dtype": "int32"}, {"name": "StatefulPartitionedCall/CollaGANAffluentGenerator/conv2d_transpose/stack/3", "shape": [], "dtype": "int32"}, {"name": "StatefulPartitionedCall/CollaGANAffluentGenerator/conv2d_transpose/conv2d_transpose/ReadVariableOp", "shape": [2, 2, 512, 1024], "dtype": "float32"}, {"name": "StatefulPartitionedCall/CollaGANAffluentGenerator/instance_normalization_33/Reshape_1", "shape": [1, 1, 1, 1024], "dtype": "float32"}, {"name": "StatefulPartitionedCall/CollaGANAffluentGenerator/instance_normalization_32/Reshape_1", "shape": [1, 1, 1, 1024], "dtype": "float32"}, {"name": "StatefulPartitionedCall/CollaGANAffluentGenerator/instance_normalization_7/Reshape_1", "shape": [1, 1, 1, 512], "dtype": "float32"}, {"name": "StatefulPartitionedCall/CollaGANAffluentGenerator/instance_normalization_6/Reshape_1", "shape": [1, 1, 1, 512], "dtype": "float32"}, {"name": "StatefulPartitionedCall/CollaGANAffluentGenerator/instance_normalization_5/Reshape_1", "shape": [1, 1, 1, 256], "dtype": "float32"}, {"name": "StatefulPartitionedCall/CollaGANAffluentGenerator/instance_normalization_4/Reshape_1", "shape": [1, 1, 1, 256], "dtype": "float32"}, {"name": "StatefulPartitionedCall/CollaGANAffluentGenerator/instance_normalization_3/Reshape_1", "shape": [1, 1, 1, 128], "dtype": "float32"}, {"name": "StatefulPartitionedCall/CollaGANAffluentGenerator/instance_normalization_2/Reshape_1", "shape": [1, 1, 1, 128], "dtype": "float32"}, {"name": "StatefulPartitionedCall/CollaGANAffluentGenerator/instance_normalization_1/Reshape_1", "shape": [1, 1, 1, 64], "dtype": "float32"}, {"name": "StatefulPartitionedCall/CollaGANAffluentGenerator/instance_normalization/Reshape_1", "shape": [1, 1, 1, 64], "dtype": "float32"}, {"name": "StatefulPartitionedCall/CollaGANAffluentGenerator/tf.concat/concat/axis", "shape": [], "dtype": "int32"}, {"name": "StatefulPartitionedCall/CollaGANAffluentGenerator/conv2d_101/Conv2D/ReadVariableOp", "shape": [3, 3, 8, 64], "dtype": "float32"}, {"name": "StatefulPartitionedCall/CollaGANAffluentGenerator/conv2d_101/BiasAdd/ReadVariableOp", "shape": [64], "dtype": "float32"}, {"name": "StatefulPartitionedCall/CollaGANAffluentGenerator/instance_normalization/moments/mean/reduction_indices", "shape": [2], "dtype": "int32"}, {"name": "StatefulPartitionedCall/CollaGANAffluentGenerator/instance_normalization/moments/variance/reduction_indices", "shape": [2], "dtype": "int32"}, {"name": "StatefulPartitionedCall/CollaGANAffluentGenerator/instance_normalization/batchnorm/add/y", "shape": [], "dtype": "float32"}, {"name": "StatefulPartitionedCall/CollaGANAffluentGenerator/instance_normalization/Reshape", "shape": [1, 1, 1, 64], "dtype": "float32"}, {"name": "StatefulPartitionedCall/CollaGANAffluentGenerator/conv2d_102/Conv2D/ReadVariableOp", "shape": [3, 3, 64, 64], "dtype": "float32"}, {"name": "StatefulPartitionedCall/CollaGANAffluentGenerator/conv2d_102/BiasAdd/ReadVariableOp", "shape": [64], "dtype": "float32"}, {"name": "StatefulPartitionedCall/CollaGANAffluentGenerator/instance_normalization_1/moments/mean/reduction_indices", "shape": [2], "dtype": "int32"}, {"name": "StatefulPartitionedCall/CollaGANAffluentGenerator/instance_normalization_1/moments/variance/reduction_indices", "shape": [2], "dtype": "int32"}, {"name": "StatefulPartitionedCall/CollaGANAffluentGenerator/instance_normalization_1/batchnorm/add/y", "shape": [], "dtype": "float32"}, {"name": "StatefulPartitionedCall/CollaGANAffluentGenerator/instance_normalization_1/Reshape", "shape": [1, 1, 1, 64], "dtype": "float32"}, {"name": "StatefulPartitionedCall/CollaGANAffluentGenerator/conv2d_103/Conv2D/ReadVariableOp", "shape": [2, 2, 64, 128], "dtype": "float32"}, {"name": "StatefulPartitionedCall/CollaGANAffluentGenerator/conv2d_104/Conv2D/ReadVariableOp", "shape": [3, 3, 128, 128], "dtype": "float32"}, {"name": "StatefulPartitionedCall/CollaGANAffluentGenerator/conv2d_104/BiasAdd/ReadVariableOp", "shape": [128], "dtype": "float32"}, {"name": "StatefulPartitionedCall/CollaGANAffluentGenerator/instance_normalization_2/moments/mean/reduction_indices", "shape": [2], "dtype": "int32"}, {"name": "StatefulPartitionedCall/CollaGANAffluentGenerator/instance_normalization_2/moments/variance/reduction_indices", "shape": [2], "dtype": "int32"}, {"name": "StatefulPartitionedCall/CollaGANAffluentGenerator/instance_normalization_2/batchnorm/add/y", "shape": [], "dtype": "float32"}, {"name": "StatefulPartitionedCall/CollaGANAffluentGenerator/instance_normalization_2/Reshape", "shape": [1, 1, 1, 128], "dtype": "float32"}, {"name": "StatefulPartitionedCall/CollaGANAffluentGenerator/conv2d_105/Conv2D/ReadVariableOp", "shape": [3, 3, 128, 128], "dtype": "float32"}, {"name": "StatefulPartitionedCall/CollaGANAffluentGenerator/conv2d_105/BiasAdd/ReadVariableOp", "shape": [128], "dtype": "float32"}, {"name": "StatefulPartitionedCall/CollaGANAffluentGenerator/instance_normalization_3/moments/mean/reduction_indices", "shape": [2], "dtype": "int32"}, {"name": "StatefulPartitionedCall/CollaGANAffluentGenerator/instance_normalization_3/moments/variance/reduction_indices", "shape": [2], "dtype": "int32"}, {"name": "StatefulPartitionedCall/CollaGANAffluentGenerator/instance_normalization_3/batchnorm/add/y", "shape": [], "dtype": "float32"}, {"name": "StatefulPartitionedCall/CollaGANAffluentGenerator/instance_normalization_3/Reshape", "shape": [1, 1, 1, 128], "dtype": "float32"}, {"name": "StatefulPartitionedCall/CollaGANAffluentGenerator/conv2d_106/Conv2D/ReadVariableOp", "shape": [2, 2, 128, 256], "dtype": "float32"}, {"name": "StatefulPartitionedCall/CollaGANAffluentGenerator/conv2d_107/Conv2D/ReadVariableOp", "shape": [3, 3, 256, 256], "dtype": "float32"}, {"name": "StatefulPartitionedCall/CollaGANAffluentGenerator/conv2d_107/BiasAdd/ReadVariableOp", "shape": [256], "dtype": "float32"}, {"name": "StatefulPartitionedCall/CollaGANAffluentGenerator/instance_normalization_4/moments/mean/reduction_indices", "shape": [2], "dtype": "int32"}, {"name": "StatefulPartitionedCall/CollaGANAffluentGenerator/instance_normalization_4/moments/variance/reduction_indices", "shape": [2], "dtype": "int32"}, {"name": "StatefulPartitionedCall/CollaGANAffluentGenerator/instance_normalization_4/batchnorm/add/y", "shape": [], "dtype": "float32"}, {"name": "StatefulPartitionedCall/CollaGANAffluentGenerator/instance_normalization_4/Reshape", "shape": [1, 1, 1, 256], "dtype": "float32"}, {"name": "StatefulPartitionedCall/CollaGANAffluentGenerator/conv2d_108/Conv2D/ReadVariableOp", "shape": [3, 3, 256, 256], "dtype": "float32"}, {"name": "StatefulPartitionedCall/CollaGANAffluentGenerator/conv2d_108/BiasAdd/ReadVariableOp", "shape": [256], "dtype": "float32"}, {"name": "StatefulPartitionedCall/CollaGANAffluentGenerator/instance_normalization_5/moments/mean/reduction_indices", "shape": [2], "dtype": "int32"}, {"name": "StatefulPartitionedCall/CollaGANAffluentGenerator/instance_normalization_5/moments/variance/reduction_indices", "shape": [2], "dtype": "int32"}, {"name": "StatefulPartitionedCall/CollaGANAffluentGenerator/instance_normalization_5/batchnorm/add/y", "shape": [], "dtype": "float32"}, {"name": "StatefulPartitionedCall/CollaGANAffluentGenerator/instance_normalization_5/Reshape", "shape": [1, 1, 1, 256], "dtype": "float32"}, {"name": "StatefulPartitionedCall/CollaGANAffluentGenerator/conv2d_109/Conv2D/ReadVariableOp", "shape": [2, 2, 256, 512], "dtype": "float32"}, {"name": "StatefulPartitionedCall/CollaGANAffluentGenerator/conv2d_110/Conv2D/ReadVariableOp", "shape": [3, 3, 512, 512], "dtype": "float32"}, {"name": "StatefulPartitionedCall/CollaGANAffluentGenerator/conv2d_110/BiasAdd/ReadVariableOp", "shape": [512], "dtype": "float32"}, {"name": "StatefulPartitionedCall/CollaGANAffluentGenerator/instance_normalization_6/moments/mean/reduction_indices", "shape": [2], "dtype": "int32"}, {"name": "StatefulPartitionedCall/CollaGANAffluentGenerator/instance_normalization_6/moments/variance/reduction_indices", "shape": [2], "dtype": "int32"}, {"name": "StatefulPartitionedCall/CollaGANAffluentGenerator/instance_normalization_6/batchnorm/add/y", "shape": [], "dtype": "float32"}, {"name": "StatefulPartitionedCall/CollaGANAffluentGenerator/instance_normalization_6/Reshape", "shape": [1, 1, 1, 512], "dtype": "float32"}, {"name": "StatefulPartitionedCall/CollaGANAffluentGenerator/conv2d_111/Conv2D/ReadVariableOp", "shape": [3, 3, 512, 512], "dtype": "float32"}, {"name": "StatefulPartitionedCall/CollaGANAffluentGenerator/conv2d_111/BiasAdd/ReadVariableOp", "shape": [512], "dtype": "float32"}, {"name": "StatefulPartitionedCall/CollaGANAffluentGenerator/instance_normalization_7/moments/mean/reduction_indices", "shape": [2], "dtype": "int32"}, {"name": "StatefulPartitionedCall/CollaGANAffluentGenerator/instance_normalization_7/moments/variance/reduction_indices", "shape": [2], "dtype": "int32"}, {"name": "StatefulPartitionedCall/CollaGANAffluentGenerator/instance_normalization_7/batchnorm/add/y", "shape": [], "dtype": "float32"}, {"name": "StatefulPartitionedCall/CollaGANAffluentGenerator/instance_normalization_7/Reshape", "shape": [1, 1, 1, 512], "dtype": "float32"}, {"name": "StatefulPartitionedCall/CollaGANAffluentGenerator/conv2d_112/Conv2D/ReadVariableOp", "shape": [2, 2, 512, 1024], "dtype": "float32"}, {"name": "StatefulPartitionedCall/CollaGANAffluentGenerator/instance_normalization_15/Reshape_1", "shape": [1, 1, 1, 512], "dtype": "float32"}, {"name": "StatefulPartitionedCall/CollaGANAffluentGenerator/instance_normalization_14/Reshape_1", "shape": [1, 1, 1, 512], "dtype": "float32"}, {"name": "StatefulPartitionedCall/CollaGANAffluentGenerator/instance_normalization_13/Reshape_1", "shape": [1, 1, 1, 256], "dtype": "float32"}, {"name": "StatefulPartitionedCall/CollaGANAffluentGenerator/instance_normalization_12/Reshape_1", "shape": [1, 1, 1, 256], "dtype": "float32"}, {"name": "StatefulPartitionedCall/CollaGANAffluentGenerator/instance_normalization_11/Reshape_1", "shape": [1, 1, 1, 128], "dtype": "float32"}, {"name": "StatefulPartitionedCall/CollaGANAffluentGenerator/instance_normalization_10/Reshape_1", "shape": [1, 1, 1, 128], "dtype": "float32"}, {"name": "StatefulPartitionedCall/CollaGANAffluentGenerator/instance_normalization_9/Reshape_1", "shape": [1, 1, 1, 64], "dtype": "float32"}, {"name": "StatefulPartitionedCall/CollaGANAffluentGenerator/instance_normalization_8/Reshape_1", "shape": [1, 1, 1, 64], "dtype": "float32"}, {"name": "StatefulPartitionedCall/CollaGANAffluentGenerator/tf.concat_1/concat/axis", "shape": [], "dtype": "int32"}, {"name": "StatefulPartitionedCall/CollaGANAffluentGenerator/conv2d_113/Conv2D/ReadVariableOp", "shape": [3, 3, 8, 64], "dtype": "float32"}, {"name": "StatefulPartitionedCall/CollaGANAffluentGenerator/conv2d_113/BiasAdd/ReadVariableOp", "shape": [64], "dtype": "float32"}, {"name": "StatefulPartitionedCall/CollaGANAffluentGenerator/instance_normalization_8/moments/mean/reduction_indices", "shape": [2], "dtype": "int32"}, {"name": "StatefulPartitionedCall/CollaGANAffluentGenerator/instance_normalization_8/moments/variance/reduction_indices", "shape": [2], "dtype": "int32"}, {"name": "StatefulPartitionedCall/CollaGANAffluentGenerator/instance_normalization_8/batchnorm/add/y", "shape": [], "dtype": "float32"}, {"name": "StatefulPartitionedCall/CollaGANAffluentGenerator/instance_normalization_8/Reshape", "shape": [1, 1, 1, 64], "dtype": "float32"}, {"name": "StatefulPartitionedCall/CollaGANAffluentGenerator/conv2d_114/Conv2D/ReadVariableOp", "shape": [3, 3, 64, 64], "dtype": "float32"}, {"name": "StatefulPartitionedCall/CollaGANAffluentGenerator/conv2d_114/BiasAdd/ReadVariableOp", "shape": [64], "dtype": "float32"}, {"name": "StatefulPartitionedCall/CollaGANAffluentGenerator/instance_normalization_9/moments/mean/reduction_indices", "shape": [2], "dtype": "int32"}, {"name": "StatefulPartitionedCall/CollaGANAffluentGenerator/instance_normalization_9/moments/variance/reduction_indices", "shape": [2], "dtype": "int32"}, {"name": "StatefulPartitionedCall/CollaGANAffluentGenerator/instance_normalization_9/batchnorm/add/y", "shape": [], "dtype": "float32"}, {"name": "StatefulPartitionedCall/CollaGANAffluentGenerator/instance_normalization_9/Reshape", "shape": [1, 1, 1, 64], "dtype": "float32"}, {"name": "StatefulPartitionedCall/CollaGANAffluentGenerator/conv2d_115/Conv2D/ReadVariableOp", "shape": [2, 2, 64, 128], "dtype": "float32"}, {"name": "StatefulPartitionedCall/CollaGANAffluentGenerator/conv2d_116/Conv2D/ReadVariableOp", "shape": [3, 3, 128, 128], "dtype": "float32"}, {"name": "StatefulPartitionedCall/CollaGANAffluentGenerator/conv2d_116/BiasAdd/ReadVariableOp", "shape": [128], "dtype": "float32"}, {"name": "StatefulPartitionedCall/CollaGANAffluentGenerator/instance_normalization_10/moments/mean/reduction_indices", "shape": [2], "dtype": "int32"}, {"name": "StatefulPartitionedCall/CollaGANAffluentGenerator/instance_normalization_10/moments/variance/reduction_indices", "shape": [2], "dtype": "int32"}, {"name": "StatefulPartitionedCall/CollaGANAffluentGenerator/instance_normalization_10/batchnorm/add/y", "shape": [], "dtype": "float32"}, {"name": "StatefulPartitionedCall/CollaGANAffluentGenerator/instance_normalization_10/Reshape", "shape": [1, 1, 1, 128], "dtype": "float32"}, {"name": "StatefulPartitionedCall/CollaGANAffluentGenerator/conv2d_117/Conv2D/ReadVariableOp", "shape": [3, 3, 128, 128], "dtype": "float32"}, {"name": "StatefulPartitionedCall/CollaGANAffluentGenerator/conv2d_117/BiasAdd/ReadVariableOp", "shape": [128], "dtype": "float32"}, {"name": "StatefulPartitionedCall/CollaGANAffluentGenerator/instance_normalization_11/moments/mean/reduction_indices", "shape": [2], "dtype": "int32"}, {"name": "StatefulPartitionedCall/CollaGANAffluentGenerator/instance_normalization_11/moments/variance/reduction_indices", "shape": [2], "dtype": "int32"}, {"name": "StatefulPartitionedCall/CollaGANAffluentGenerator/instance_normalization_11/batchnorm/add/y", "shape": [], "dtype": "float32"}, {"name": "StatefulPartitionedCall/CollaGANAffluentGenerator/instance_normalization_11/Reshape", "shape": [1, 1, 1, 128], "dtype": "float32"}, {"name": "StatefulPartitionedCall/CollaGANAffluentGenerator/conv2d_118/Conv2D/ReadVariableOp", "shape": [2, 2, 128, 256], "dtype": "float32"}, {"name": "StatefulPartitionedCall/CollaGANAffluentGenerator/conv2d_119/Conv2D/ReadVariableOp", "shape": [3, 3, 256, 256], "dtype": "float32"}, {"name": "StatefulPartitionedCall/CollaGANAffluentGenerator/conv2d_119/BiasAdd/ReadVariableOp", "shape": [256], "dtype": "float32"}, {"name": "StatefulPartitionedCall/CollaGANAffluentGenerator/instance_normalization_12/moments/mean/reduction_indices", "shape": [2], "dtype": "int32"}, {"name": "StatefulPartitionedCall/CollaGANAffluentGenerator/instance_normalization_12/moments/variance/reduction_indices", "shape": [2], "dtype": "int32"}, {"name": "StatefulPartitionedCall/CollaGANAffluentGenerator/instance_normalization_12/batchnorm/add/y", "shape": [], "dtype": "float32"}, {"name": "StatefulPartitionedCall/CollaGANAffluentGenerator/instance_normalization_12/Reshape", "shape": [1, 1, 1, 256], "dtype": "float32"}, {"name": "StatefulPartitionedCall/CollaGANAffluentGenerator/conv2d_120/Conv2D/ReadVariableOp", "shape": [3, 3, 256, 256], "dtype": "float32"}, {"name": "StatefulPartitionedCall/CollaGANAffluentGenerator/conv2d_120/BiasAdd/ReadVariableOp", "shape": [256], "dtype": "float32"}, {"name": "StatefulPartitionedCall/CollaGANAffluentGenerator/instance_normalization_13/moments/mean/reduction_indices", "shape": [2], "dtype": "int32"}, {"name": "StatefulPartitionedCall/CollaGANAffluentGenerator/instance_normalization_13/moments/variance/reduction_indices", "shape": [2], "dtype": "int32"}, {"name": "StatefulPartitionedCall/CollaGANAffluentGenerator/instance_normalization_13/batchnorm/add/y", "shape": [], "dtype": "float32"}, {"name": "StatefulPartitionedCall/CollaGANAffluentGenerator/instance_normalization_13/Reshape", "shape": [1, 1, 1, 256], "dtype": "float32"}, {"name": "StatefulPartitionedCall/CollaGANAffluentGenerator/conv2d_121/Conv2D/ReadVariableOp", "shape": [2, 2, 256, 512], "dtype": "float32"}, {"name": "StatefulPartitionedCall/CollaGANAffluentGenerator/conv2d_122/Conv2D/ReadVariableOp", "shape": [3, 3, 512, 512], "dtype": "float32"}, {"name": "StatefulPartitionedCall/CollaGANAffluentGenerator/conv2d_122/BiasAdd/ReadVariableOp", "shape": [512], "dtype": "float32"}, {"name": "StatefulPartitionedCall/CollaGANAffluentGenerator/instance_normalization_14/moments/mean/reduction_indices", "shape": [2], "dtype": "int32"}, {"name": "StatefulPartitionedCall/CollaGANAffluentGenerator/instance_normalization_14/moments/variance/reduction_indices", "shape": [2], "dtype": "int32"}, {"name": "StatefulPartitionedCall/CollaGANAffluentGenerator/instance_normalization_14/batchnorm/add/y", "shape": [], "dtype": "float32"}, {"name": "StatefulPartitionedCall/CollaGANAffluentGenerator/instance_normalization_14/Reshape", "shape": [1, 1, 1, 512], "dtype": "float32"}, {"name": "StatefulPartitionedCall/CollaGANAffluentGenerator/conv2d_123/Conv2D/ReadVariableOp", "shape": [3, 3, 512, 512], "dtype": "float32"}, {"name": "StatefulPartitionedCall/CollaGANAffluentGenerator/conv2d_123/BiasAdd/ReadVariableOp", "shape": [512], "dtype": "float32"}, {"name": "StatefulPartitionedCall/CollaGANAffluentGenerator/instance_normalization_15/moments/mean/reduction_indices", "shape": [2], "dtype": "int32"}, {"name": "StatefulPartitionedCall/CollaGANAffluentGenerator/instance_normalization_15/moments/variance/reduction_indices", "shape": [2], "dtype": "int32"}, {"name": "StatefulPartitionedCall/CollaGANAffluentGenerator/instance_normalization_15/batchnorm/add/y", "shape": [], "dtype": "float32"}, {"name": "StatefulPartitionedCall/CollaGANAffluentGenerator/instance_normalization_15/Reshape", "shape": [1, 1, 1, 512], "dtype": "float32"}, {"name": "StatefulPartitionedCall/CollaGANAffluentGenerator/conv2d_124/Conv2D/ReadVariableOp", "shape": [2, 2, 512, 1024], "dtype": "float32"}, {"name": "StatefulPartitionedCall/CollaGANAffluentGenerator/instance_normalization_23/Reshape_1", "shape": [1, 1, 1, 512], "dtype": "float32"}, {"name": "StatefulPartitionedCall/CollaGANAffluentGenerator/instance_normalization_22/Reshape_1", "shape": [1, 1, 1, 512], "dtype": "float32"}, {"name": "StatefulPartitionedCall/CollaGANAffluentGenerator/instance_normalization_21/Reshape_1", "shape": [1, 1, 1, 256], "dtype": "float32"}, {"name": "StatefulPartitionedCall/CollaGANAffluentGenerator/instance_normalization_20/Reshape_1", "shape": [1, 1, 1, 256], "dtype": "float32"}, {"name": "StatefulPartitionedCall/CollaGANAffluentGenerator/instance_normalization_19/Reshape_1", "shape": [1, 1, 1, 128], "dtype": "float32"}, {"name": "StatefulPartitionedCall/CollaGANAffluentGenerator/instance_normalization_18/Reshape_1", "shape": [1, 1, 1, 128], "dtype": "float32"}, {"name": "StatefulPartitionedCall/CollaGANAffluentGenerator/instance_normalization_17/Reshape_1", "shape": [1, 1, 1, 64], "dtype": "float32"}, {"name": "StatefulPartitionedCall/CollaGANAffluentGenerator/instance_normalization_16/Reshape_1", "shape": [1, 1, 1, 64], "dtype": "float32"}, {"name": "StatefulPartitionedCall/CollaGANAffluentGenerator/tf.concat_2/concat/axis", "shape": [], "dtype": "int32"}, {"name": "StatefulPartitionedCall/CollaGANAffluentGenerator/conv2d_125/Conv2D/ReadVariableOp", "shape": [3, 3, 8, 64], "dtype": "float32"}, {"name": "StatefulPartitionedCall/CollaGANAffluentGenerator/conv2d_125/BiasAdd/ReadVariableOp", "shape": [64], "dtype": "float32"}, {"name": "StatefulPartitionedCall/CollaGANAffluentGenerator/instance_normalization_16/moments/mean/reduction_indices", "shape": [2], "dtype": "int32"}, {"name": "StatefulPartitionedCall/CollaGANAffluentGenerator/instance_normalization_16/moments/variance/reduction_indices", "shape": [2], "dtype": "int32"}, {"name": "StatefulPartitionedCall/CollaGANAffluentGenerator/instance_normalization_16/batchnorm/add/y", "shape": [], "dtype": "float32"}, {"name": "StatefulPartitionedCall/CollaGANAffluentGenerator/instance_normalization_16/Reshape", "shape": [1, 1, 1, 64], "dtype": "float32"}, {"name": "StatefulPartitionedCall/CollaGANAffluentGenerator/conv2d_126/Conv2D/ReadVariableOp", "shape": [3, 3, 64, 64], "dtype": "float32"}, {"name": "StatefulPartitionedCall/CollaGANAffluentGenerator/conv2d_126/BiasAdd/ReadVariableOp", "shape": [64], "dtype": "float32"}, {"name": "StatefulPartitionedCall/CollaGANAffluentGenerator/instance_normalization_17/moments/mean/reduction_indices", "shape": [2], "dtype": "int32"}, {"name": "StatefulPartitionedCall/CollaGANAffluentGenerator/instance_normalization_17/moments/variance/reduction_indices", "shape": [2], "dtype": "int32"}, {"name": "StatefulPartitionedCall/CollaGANAffluentGenerator/instance_normalization_17/batchnorm/add/y", "shape": [], "dtype": "float32"}, {"name": "StatefulPartitionedCall/CollaGANAffluentGenerator/instance_normalization_17/Reshape", "shape": [1, 1, 1, 64], "dtype": "float32"}, {"name": "StatefulPartitionedCall/CollaGANAffluentGenerator/conv2d_127/Conv2D/ReadVariableOp", "shape": [2, 2, 64, 128], "dtype": "float32"}, {"name": "StatefulPartitionedCall/CollaGANAffluentGenerator/conv2d_128/Conv2D/ReadVariableOp", "shape": [3, 3, 128, 128], "dtype": "float32"}, {"name": "StatefulPartitionedCall/CollaGANAffluentGenerator/conv2d_128/BiasAdd/ReadVariableOp", "shape": [128], "dtype": "float32"}, {"name": "StatefulPartitionedCall/CollaGANAffluentGenerator/instance_normalization_18/moments/mean/reduction_indices", "shape": [2], "dtype": "int32"}, {"name": "StatefulPartitionedCall/CollaGANAffluentGenerator/instance_normalization_18/moments/variance/reduction_indices", "shape": [2], "dtype": "int32"}, {"name": "StatefulPartitionedCall/CollaGANAffluentGenerator/instance_normalization_18/batchnorm/add/y", "shape": [], "dtype": "float32"}, {"name": "StatefulPartitionedCall/CollaGANAffluentGenerator/instance_normalization_18/Reshape", "shape": [1, 1, 1, 128], "dtype": "float32"}, {"name": "StatefulPartitionedCall/CollaGANAffluentGenerator/conv2d_129/Conv2D/ReadVariableOp", "shape": [3, 3, 128, 128], "dtype": "float32"}, {"name": "StatefulPartitionedCall/CollaGANAffluentGenerator/conv2d_129/BiasAdd/ReadVariableOp", "shape": [128], "dtype": "float32"}, {"name": "StatefulPartitionedCall/CollaGANAffluentGenerator/instance_normalization_19/moments/mean/reduction_indices", "shape": [2], "dtype": "int32"}, {"name": "StatefulPartitionedCall/CollaGANAffluentGenerator/instance_normalization_19/moments/variance/reduction_indices", "shape": [2], "dtype": "int32"}, {"name": "StatefulPartitionedCall/CollaGANAffluentGenerator/instance_normalization_19/batchnorm/add/y", "shape": [], "dtype": "float32"}, {"name": "StatefulPartitionedCall/CollaGANAffluentGenerator/instance_normalization_19/Reshape", "shape": [1, 1, 1, 128], "dtype": "float32"}, {"name": "StatefulPartitionedCall/CollaGANAffluentGenerator/conv2d_130/Conv2D/ReadVariableOp", "shape": [2, 2, 128, 256], "dtype": "float32"}, {"name": "StatefulPartitionedCall/CollaGANAffluentGenerator/conv2d_131/Conv2D/ReadVariableOp", "shape": [3, 3, 256, 256], "dtype": "float32"}, {"name": "StatefulPartitionedCall/CollaGANAffluentGenerator/conv2d_131/BiasAdd/ReadVariableOp", "shape": [256], "dtype": "float32"}, {"name": "StatefulPartitionedCall/CollaGANAffluentGenerator/instance_normalization_20/moments/mean/reduction_indices", "shape": [2], "dtype": "int32"}, {"name": "StatefulPartitionedCall/CollaGANAffluentGenerator/instance_normalization_20/moments/variance/reduction_indices", "shape": [2], "dtype": "int32"}, {"name": "StatefulPartitionedCall/CollaGANAffluentGenerator/instance_normalization_20/batchnorm/add/y", "shape": [], "dtype": "float32"}, {"name": "StatefulPartitionedCall/CollaGANAffluentGenerator/instance_normalization_20/Reshape", "shape": [1, 1, 1, 256], "dtype": "float32"}, {"name": "StatefulPartitionedCall/CollaGANAffluentGenerator/conv2d_132/Conv2D/ReadVariableOp", "shape": [3, 3, 256, 256], "dtype": "float32"}, {"name": "StatefulPartitionedCall/CollaGANAffluentGenerator/conv2d_132/BiasAdd/ReadVariableOp", "shape": [256], "dtype": "float32"}, {"name": "StatefulPartitionedCall/CollaGANAffluentGenerator/instance_normalization_21/moments/mean/reduction_indices", "shape": [2], "dtype": "int32"}, {"name": "StatefulPartitionedCall/CollaGANAffluentGenerator/instance_normalization_21/moments/variance/reduction_indices", "shape": [2], "dtype": "int32"}, {"name": "StatefulPartitionedCall/CollaGANAffluentGenerator/instance_normalization_21/batchnorm/add/y", "shape": [], "dtype": "float32"}, {"name": "StatefulPartitionedCall/CollaGANAffluentGenerator/instance_normalization_21/Reshape", "shape": [1, 1, 1, 256], "dtype": "float32"}, {"name": "StatefulPartitionedCall/CollaGANAffluentGenerator/conv2d_133/Conv2D/ReadVariableOp", "shape": [2, 2, 256, 512], "dtype": "float32"}, {"name": "StatefulPartitionedCall/CollaGANAffluentGenerator/conv2d_134/Conv2D/ReadVariableOp", "shape": [3, 3, 512, 512], "dtype": "float32"}, {"name": "StatefulPartitionedCall/CollaGANAffluentGenerator/conv2d_134/BiasAdd/ReadVariableOp", "shape": [512], "dtype": "float32"}, {"name": "StatefulPartitionedCall/CollaGANAffluentGenerator/instance_normalization_22/moments/mean/reduction_indices", "shape": [2], "dtype": "int32"}, {"name": "StatefulPartitionedCall/CollaGANAffluentGenerator/instance_normalization_22/moments/variance/reduction_indices", "shape": [2], "dtype": "int32"}, {"name": "StatefulPartitionedCall/CollaGANAffluentGenerator/instance_normalization_22/batchnorm/add/y", "shape": [], "dtype": "float32"}, {"name": "StatefulPartitionedCall/CollaGANAffluentGenerator/instance_normalization_22/Reshape", "shape": [1, 1, 1, 512], "dtype": "float32"}, {"name": "StatefulPartitionedCall/CollaGANAffluentGenerator/conv2d_135/Conv2D/ReadVariableOp", "shape": [3, 3, 512, 512], "dtype": "float32"}, {"name": "StatefulPartitionedCall/CollaGANAffluentGenerator/conv2d_135/BiasAdd/ReadVariableOp", "shape": [512], "dtype": "float32"}, {"name": "StatefulPartitionedCall/CollaGANAffluentGenerator/instance_normalization_23/moments/mean/reduction_indices", "shape": [2], "dtype": "int32"}, {"name": "StatefulPartitionedCall/CollaGANAffluentGenerator/instance_normalization_23/moments/variance/reduction_indices", "shape": [2], "dtype": "int32"}, {"name": "StatefulPartitionedCall/CollaGANAffluentGenerator/instance_normalization_23/batchnorm/add/y", "shape": [], "dtype": "float32"}, {"name": "StatefulPartitionedCall/CollaGANAffluentGenerator/instance_normalization_23/Reshape", "shape": [1, 1, 1, 512], "dtype": "float32"}, {"name": "StatefulPartitionedCall/CollaGANAffluentGenerator/conv2d_136/Conv2D/ReadVariableOp", "shape": [2, 2, 512, 1024], "dtype": "float32"}, {"name": "StatefulPartitionedCall/CollaGANAffluentGenerator/instance_normalization_31/Reshape_1", "shape": [1, 1, 1, 512], "dtype": "float32"}, {"name": "StatefulPartitionedCall/CollaGANAffluentGenerator/instance_normalization_30/Reshape_1", "shape": [1, 1, 1, 512], "dtype": "float32"}, {"name": "StatefulPartitionedCall/CollaGANAffluentGenerator/instance_normalization_29/Reshape_1", "shape": [1, 1, 1, 256], "dtype": "float32"}, {"name": "StatefulPartitionedCall/CollaGANAffluentGenerator/instance_normalization_28/Reshape_1", "shape": [1, 1, 1, 256], "dtype": "float32"}, {"name": "StatefulPartitionedCall/CollaGANAffluentGenerator/instance_normalization_27/Reshape_1", "shape": [1, 1, 1, 128], "dtype": "float32"}, {"name": "StatefulPartitionedCall/CollaGANAffluentGenerator/instance_normalization_26/Reshape_1", "shape": [1, 1, 1, 128], "dtype": "float32"}, {"name": "StatefulPartitionedCall/CollaGANAffluentGenerator/instance_normalization_25/Reshape_1", "shape": [1, 1, 1, 64], "dtype": "float32"}, {"name": "StatefulPartitionedCall/CollaGANAffluentGenerator/instance_normalization_24/Reshape_1", "shape": [1, 1, 1, 64], "dtype": "float32"}, {"name": "StatefulPartitionedCall/CollaGANAffluentGenerator/tile_layer/ExpandDims/dim", "shape": [], "dtype": "int32"}, {"name": "StatefulPartitionedCall/CollaGANAffluentGenerator/tile_layer/TileLayer/multiples", "shape": [3], "dtype": "int32"}, {"name": "StatefulPartitionedCall/CollaGANAffluentGenerator/tile_layer_1/ExpandDims/dim", "shape": [], "dtype": "int32"}, {"name": "StatefulPartitionedCall/CollaGANAffluentGenerator/tile_layer_1/TileLayer/multiples", "shape": [4], "dtype": "int32"}, {"name": "StatefulPartitionedCall/CollaGANAffluentGenerator/tf.concat_3/concat/axis", "shape": [], "dtype": "int32"}, {"name": "StatefulPartitionedCall/CollaGANAffluentGenerator/conv2d_137/Conv2D/ReadVariableOp", "shape": [3, 3, 8, 64], "dtype": "float32"}, {"name": "StatefulPartitionedCall/CollaGANAffluentGenerator/conv2d_137/BiasAdd/ReadVariableOp", "shape": [64], "dtype": "float32"}, {"name": "StatefulPartitionedCall/CollaGANAffluentGenerator/instance_normalization_24/moments/mean/reduction_indices", "shape": [2], "dtype": "int32"}, {"name": "StatefulPartitionedCall/CollaGANAffluentGenerator/instance_normalization_24/moments/variance/reduction_indices", "shape": [2], "dtype": "int32"}, {"name": "StatefulPartitionedCall/CollaGANAffluentGenerator/instance_normalization_24/batchnorm/add/y", "shape": [], "dtype": "float32"}, {"name": "StatefulPartitionedCall/CollaGANAffluentGenerator/instance_normalization_24/Reshape", "shape": [1, 1, 1, 64], "dtype": "float32"}, {"name": "StatefulPartitionedCall/CollaGANAffluentGenerator/conv2d_138/Conv2D/ReadVariableOp", "shape": [3, 3, 64, 64], "dtype": "float32"}, {"name": "StatefulPartitionedCall/CollaGANAffluentGenerator/conv2d_138/BiasAdd/ReadVariableOp", "shape": [64], "dtype": "float32"}, {"name": "StatefulPartitionedCall/CollaGANAffluentGenerator/instance_normalization_25/moments/mean/reduction_indices", "shape": [2], "dtype": "int32"}, {"name": "StatefulPartitionedCall/CollaGANAffluentGenerator/instance_normalization_25/moments/variance/reduction_indices", "shape": [2], "dtype": "int32"}, {"name": "StatefulPartitionedCall/CollaGANAffluentGenerator/instance_normalization_25/batchnorm/add/y", "shape": [], "dtype": "float32"}, {"name": "StatefulPartitionedCall/CollaGANAffluentGenerator/instance_normalization_25/Reshape", "shape": [1, 1, 1, 64], "dtype": "float32"}, {"name": "StatefulPartitionedCall/CollaGANAffluentGenerator/conv2d_139/Conv2D/ReadVariableOp", "shape": [2, 2, 64, 128], "dtype": "float32"}, {"name": "StatefulPartitionedCall/CollaGANAffluentGenerator/conv2d_140/Conv2D/ReadVariableOp", "shape": [3, 3, 128, 128], "dtype": "float32"}, {"name": "StatefulPartitionedCall/CollaGANAffluentGenerator/conv2d_140/BiasAdd/ReadVariableOp", "shape": [128], "dtype": "float32"}, {"name": "StatefulPartitionedCall/CollaGANAffluentGenerator/instance_normalization_26/moments/mean/reduction_indices", "shape": [2], "dtype": "int32"}, {"name": "StatefulPartitionedCall/CollaGANAffluentGenerator/instance_normalization_26/moments/variance/reduction_indices", "shape": [2], "dtype": "int32"}, {"name": "StatefulPartitionedCall/CollaGANAffluentGenerator/instance_normalization_26/batchnorm/add/y", "shape": [], "dtype": "float32"}, {"name": "StatefulPartitionedCall/CollaGANAffluentGenerator/instance_normalization_26/Reshape", "shape": [1, 1, 1, 128], "dtype": "float32"}, {"name": "StatefulPartitionedCall/CollaGANAffluentGenerator/conv2d_141/Conv2D/ReadVariableOp", "shape": [3, 3, 128, 128], "dtype": "float32"}, {"name": "StatefulPartitionedCall/CollaGANAffluentGenerator/conv2d_141/BiasAdd/ReadVariableOp", "shape": [128], "dtype": "float32"}, {"name": "StatefulPartitionedCall/CollaGANAffluentGenerator/instance_normalization_27/moments/mean/reduction_indices", "shape": [2], "dtype": "int32"}, {"name": "StatefulPartitionedCall/CollaGANAffluentGenerator/instance_normalization_27/moments/variance/reduction_indices", "shape": [2], "dtype": "int32"}, {"name": "StatefulPartitionedCall/CollaGANAffluentGenerator/instance_normalization_27/batchnorm/add/y", "shape": [], "dtype": "float32"}, {"name": "StatefulPartitionedCall/CollaGANAffluentGenerator/instance_normalization_27/Reshape", "shape": [1, 1, 1, 128], "dtype": "float32"}, {"name": "StatefulPartitionedCall/CollaGANAffluentGenerator/conv2d_142/Conv2D/ReadVariableOp", "shape": [2, 2, 128, 256], "dtype": "float32"}, {"name": "StatefulPartitionedCall/CollaGANAffluentGenerator/conv2d_143/Conv2D/ReadVariableOp", "shape": [3, 3, 256, 256], "dtype": "float32"}, {"name": "StatefulPartitionedCall/CollaGANAffluentGenerator/conv2d_143/BiasAdd/ReadVariableOp", "shape": [256], "dtype": "float32"}, {"name": "StatefulPartitionedCall/CollaGANAffluentGenerator/instance_normalization_28/moments/mean/reduction_indices", "shape": [2], "dtype": "int32"}, {"name": "StatefulPartitionedCall/CollaGANAffluentGenerator/instance_normalization_28/moments/variance/reduction_indices", "shape": [2], "dtype": "int32"}, {"name": "StatefulPartitionedCall/CollaGANAffluentGenerator/instance_normalization_28/batchnorm/add/y", "shape": [], "dtype": "float32"}, {"name": "StatefulPartitionedCall/CollaGANAffluentGenerator/instance_normalization_28/Reshape", "shape": [1, 1, 1, 256], "dtype": "float32"}, {"name": "StatefulPartitionedCall/CollaGANAffluentGenerator/conv2d_144/Conv2D/ReadVariableOp", "shape": [3, 3, 256, 256], "dtype": "float32"}, {"name": "StatefulPartitionedCall/CollaGANAffluentGenerator/conv2d_144/BiasAdd/ReadVariableOp", "shape": [256], "dtype": "float32"}, {"name": "StatefulPartitionedCall/CollaGANAffluentGenerator/instance_normalization_29/moments/mean/reduction_indices", "shape": [2], "dtype": "int32"}, {"name": "StatefulPartitionedCall/CollaGANAffluentGenerator/instance_normalization_29/moments/variance/reduction_indices", "shape": [2], "dtype": "int32"}, {"name": "StatefulPartitionedCall/CollaGANAffluentGenerator/instance_normalization_29/batchnorm/add/y", "shape": [], "dtype": "float32"}, {"name": "StatefulPartitionedCall/CollaGANAffluentGenerator/instance_normalization_29/Reshape", "shape": [1, 1, 1, 256], "dtype": "float32"}, {"name": "StatefulPartitionedCall/CollaGANAffluentGenerator/conv2d_145/Conv2D/ReadVariableOp", "shape": [2, 2, 256, 512], "dtype": "float32"}, {"name": "StatefulPartitionedCall/CollaGANAffluentGenerator/conv2d_146/Conv2D/ReadVariableOp", "shape": [3, 3, 512, 512], "dtype": "float32"}, {"name": "StatefulPartitionedCall/CollaGANAffluentGenerator/conv2d_146/BiasAdd/ReadVariableOp", "shape": [512], "dtype": "float32"}, {"name": "StatefulPartitionedCall/CollaGANAffluentGenerator/instance_normalization_30/moments/mean/reduction_indices", "shape": [2], "dtype": "int32"}, {"name": "StatefulPartitionedCall/CollaGANAffluentGenerator/instance_normalization_30/moments/variance/reduction_indices", "shape": [2], "dtype": "int32"}, {"name": "StatefulPartitionedCall/CollaGANAffluentGenerator/instance_normalization_30/batchnorm/add/y", "shape": [], "dtype": "float32"}, {"name": "StatefulPartitionedCall/CollaGANAffluentGenerator/instance_normalization_30/Reshape", "shape": [1, 1, 1, 512], "dtype": "float32"}, {"name": "StatefulPartitionedCall/CollaGANAffluentGenerator/conv2d_147/Conv2D/ReadVariableOp", "shape": [3, 3, 512, 512], "dtype": "float32"}, {"name": "StatefulPartitionedCall/CollaGANAffluentGenerator/conv2d_147/BiasAdd/ReadVariableOp", "shape": [512], "dtype": "float32"}, {"name": "StatefulPartitionedCall/CollaGANAffluentGenerator/instance_normalization_31/moments/mean/reduction_indices", "shape": [2], "dtype": "int32"}, {"name": "StatefulPartitionedCall/CollaGANAffluentGenerator/instance_normalization_31/moments/variance/reduction_indices", "shape": [2], "dtype": "int32"}, {"name": "StatefulPartitionedCall/CollaGANAffluentGenerator/instance_normalization_31/batchnorm/add/y", "shape": [], "dtype": "float32"}, {"name": "StatefulPartitionedCall/CollaGANAffluentGenerator/instance_normalization_31/Reshape", "shape": [1, 1, 1, 512], "dtype": "float32"}, {"name": "StatefulPartitionedCall/CollaGANAffluentGenerator/conv2d_148/Conv2D/ReadVariableOp", "shape": [2, 2, 512, 1024], "dtype": "float32"}, {"name": "StatefulPartitionedCall/CollaGANAffluentGenerator/tf.concat_4/concat/axis", "shape": [], "dtype": "int32"}, {"name": "StatefulPartitionedCall/CollaGANAffluentGenerator/conv2d_149/Conv2D/ReadVariableOp", "shape": [3, 3, 4096, 1024], "dtype": "float32"}, {"name": "StatefulPartitionedCall/CollaGANAffluentGenerator/conv2d_149/BiasAdd/ReadVariableOp", "shape": [1024], "dtype": "float32"}, {"name": "StatefulPartitionedCall/CollaGANAffluentGenerator/instance_normalization_32/moments/mean/reduction_indices", "shape": [2], "dtype": "int32"}, {"name": "StatefulPartitionedCall/CollaGANAffluentGenerator/instance_normalization_32/moments/variance/reduction_indices", "shape": [2], "dtype": "int32"}, {"name": "StatefulPartitionedCall/CollaGANAffluentGenerator/instance_normalization_32/batchnorm/add/y", "shape": [], "dtype": "float32"}, {"name": "StatefulPartitionedCall/CollaGANAffluentGenerator/instance_normalization_32/Reshape", "shape": [1, 1, 1, 1024], "dtype": "float32"}, {"name": "StatefulPartitionedCall/CollaGANAffluentGenerator/conv2d_150/Conv2D/ReadVariableOp", "shape": [3, 3, 1024, 1024], "dtype": "float32"}, {"name": "StatefulPartitionedCall/CollaGANAffluentGenerator/conv2d_150/BiasAdd/ReadVariableOp", "shape": [1024], "dtype": "float32"}, {"name": "StatefulPartitionedCall/CollaGANAffluentGenerator/instance_normalization_33/moments/mean/reduction_indices", "shape": [2], "dtype": "int32"}, {"name": "StatefulPartitionedCall/CollaGANAffluentGenerator/instance_normalization_33/moments/variance/reduction_indices", "shape": [2], "dtype": "int32"}, {"name": "StatefulPartitionedCall/CollaGANAffluentGenerator/instance_normalization_33/batchnorm/add/y", "shape": [], "dtype": "float32"}, {"name": "StatefulPartitionedCall/CollaGANAffluentGenerator/instance_normalization_33/Reshape", "shape": [1, 1, 1, 1024], "dtype": "float32"}, {"name": "StatefulPartitionedCall/CollaGANAffluentGenerator/conv2d_transpose/BiasAdd/ReadVariableOp", "shape": [512], "dtype": "float32"}, {"name": "StatefulPartitionedCall/CollaGANAffluentGenerator/tf.concat_6/concat/axis", "shape": [], "dtype": "int32"}, {"name": "StatefulPartitionedCall/CollaGANAffluentGenerator/conv2d_151/Conv2D/ReadVariableOp", "shape": [3, 3, 2560, 512], "dtype": "float32"}, {"name": "StatefulPartitionedCall/CollaGANAffluentGenerator/conv2d_151/BiasAdd/ReadVariableOp", "shape": [512], "dtype": "float32"}, {"name": "StatefulPartitionedCall/CollaGANAffluentGenerator/instance_normalization_34/moments/mean/reduction_indices", "shape": [2], "dtype": "int32"}, {"name": "StatefulPartitionedCall/CollaGANAffluentGenerator/instance_normalization_34/moments/variance/reduction_indices", "shape": [2], "dtype": "int32"}, {"name": "StatefulPartitionedCall/CollaGANAffluentGenerator/instance_normalization_34/batchnorm/add/y", "shape": [], "dtype": "float32"}, {"name": "StatefulPartitionedCall/CollaGANAffluentGenerator/instance_normalization_34/Reshape", "shape": [1, 1, 1, 512], "dtype": "float32"}, {"name": "StatefulPartitionedCall/CollaGANAffluentGenerator/conv2d_152/Conv2D/ReadVariableOp", "shape": [3, 3, 512, 512], "dtype": "float32"}, {"name": "StatefulPartitionedCall/CollaGANAffluentGenerator/conv2d_152/BiasAdd/ReadVariableOp", "shape": [512], "dtype": "float32"}, {"name": "StatefulPartitionedCall/CollaGANAffluentGenerator/instance_normalization_35/moments/mean/reduction_indices", "shape": [2], "dtype": "int32"}, {"name": "StatefulPartitionedCall/CollaGANAffluentGenerator/instance_normalization_35/moments/variance/reduction_indices", "shape": [2], "dtype": "int32"}, {"name": "StatefulPartitionedCall/CollaGANAffluentGenerator/instance_normalization_35/batchnorm/add/y", "shape": [], "dtype": "float32"}, {"name": "StatefulPartitionedCall/CollaGANAffluentGenerator/instance_normalization_35/Reshape", "shape": [1, 1, 1, 512], "dtype": "float32"}, {"name": "StatefulPartitionedCall/CollaGANAffluentGenerator/conv2d_transpose_1/BiasAdd/ReadVariableOp", "shape": [256], "dtype": "float32"}, {"name": "StatefulPartitionedCall/CollaGANAffluentGenerator/tf.concat_8/concat/axis", "shape": [], "dtype": "int32"}, {"name": "StatefulPartitionedCall/CollaGANAffluentGenerator/conv2d_153/Conv2D/ReadVariableOp", "shape": [3, 3, 1280, 256], "dtype": "float32"}, {"name": "StatefulPartitionedCall/CollaGANAffluentGenerator/conv2d_153/BiasAdd/ReadVariableOp", "shape": [256], "dtype": "float32"}, {"name": "StatefulPartitionedCall/CollaGANAffluentGenerator/instance_normalization_36/moments/mean/reduction_indices", "shape": [2], "dtype": "int32"}, {"name": "StatefulPartitionedCall/CollaGANAffluentGenerator/instance_normalization_36/moments/variance/reduction_indices", "shape": [2], "dtype": "int32"}, {"name": "StatefulPartitionedCall/CollaGANAffluentGenerator/instance_normalization_36/batchnorm/add/y", "shape": [], "dtype": "float32"}, {"name": "StatefulPartitionedCall/CollaGANAffluentGenerator/instance_normalization_36/Reshape", "shape": [1, 1, 1, 256], "dtype": "float32"}, {"name": "StatefulPartitionedCall/CollaGANAffluentGenerator/conv2d_154/Conv2D/ReadVariableOp", "shape": [3, 3, 256, 256], "dtype": "float32"}, {"name": "StatefulPartitionedCall/CollaGANAffluentGenerator/conv2d_154/BiasAdd/ReadVariableOp", "shape": [256], "dtype": "float32"}, {"name": "StatefulPartitionedCall/CollaGANAffluentGenerator/instance_normalization_37/moments/mean/reduction_indices", "shape": [2], "dtype": "int32"}, {"name": "StatefulPartitionedCall/CollaGANAffluentGenerator/instance_normalization_37/moments/variance/reduction_indices", "shape": [2], "dtype": "int32"}, {"name": "StatefulPartitionedCall/CollaGANAffluentGenerator/instance_normalization_37/batchnorm/add/y", "shape": [], "dtype": "float32"}, {"name": "StatefulPartitionedCall/CollaGANAffluentGenerator/instance_normalization_37/Reshape", "shape": [1, 1, 1, 256], "dtype": "float32"}, {"name": "StatefulPartitionedCall/CollaGANAffluentGenerator/conv2d_transpose_2/BiasAdd/ReadVariableOp", "shape": [128], "dtype": "float32"}, {"name": "StatefulPartitionedCall/CollaGANAffluentGenerator/tf.concat_10/concat/axis", "shape": [], "dtype": "int32"}, {"name": "StatefulPartitionedCall/CollaGANAffluentGenerator/conv2d_155/Conv2D/ReadVariableOp", "shape": [3, 3, 640, 128], "dtype": "float32"}, {"name": "StatefulPartitionedCall/CollaGANAffluentGenerator/conv2d_155/BiasAdd/ReadVariableOp", "shape": [128], "dtype": "float32"}, {"name": "StatefulPartitionedCall/CollaGANAffluentGenerator/instance_normalization_38/moments/mean/reduction_indices", "shape": [2], "dtype": "int32"}, {"name": "StatefulPartitionedCall/CollaGANAffluentGenerator/instance_normalization_38/moments/variance/reduction_indices", "shape": [2], "dtype": "int32"}, {"name": "StatefulPartitionedCall/CollaGANAffluentGenerator/instance_normalization_38/batchnorm/add/y", "shape": [], "dtype": "float32"}, {"name": "StatefulPartitionedCall/CollaGANAffluentGenerator/instance_normalization_38/Reshape", "shape": [1, 1, 1, 128], "dtype": "float32"}, {"name": "StatefulPartitionedCall/CollaGANAffluentGenerator/conv2d_156/Conv2D/ReadVariableOp", "shape": [3, 3, 128, 128], "dtype": "float32"}, {"name": "StatefulPartitionedCall/CollaGANAffluentGenerator/conv2d_156/BiasAdd/ReadVariableOp", "shape": [128], "dtype": "float32"}, {"name": "StatefulPartitionedCall/CollaGANAffluentGenerator/instance_normalization_39/moments/mean/reduction_indices", "shape": [2], "dtype": "int32"}, {"name": "StatefulPartitionedCall/CollaGANAffluentGenerator/instance_normalization_39/moments/variance/reduction_indices", "shape": [2], "dtype": "int32"}, {"name": "StatefulPartitionedCall/CollaGANAffluentGenerator/instance_normalization_39/batchnorm/add/y", "shape": [], "dtype": "float32"}, {"name": "StatefulPartitionedCall/CollaGANAffluentGenerator/instance_normalization_39/Reshape", "shape": [1, 1, 1, 128], "dtype": "float32"}, {"name": "StatefulPartitionedCall/CollaGANAffluentGenerator/conv2d_transpose_3/BiasAdd/ReadVariableOp", "shape": [64], "dtype": "float32"}, {"name": "StatefulPartitionedCall/CollaGANAffluentGenerator/tf.concat_12/concat/axis", "shape": [], "dtype": "int32"}, {"name": "StatefulPartitionedCall/CollaGANAffluentGenerator/conv2d_157/Conv2D/ReadVariableOp", "shape": [3, 3, 320, 64], "dtype": "float32"}, {"name": "StatefulPartitionedCall/CollaGANAffluentGenerator/conv2d_157/BiasAdd/ReadVariableOp", "shape": [64], "dtype": "float32"}, {"name": "StatefulPartitionedCall/CollaGANAffluentGenerator/instance_normalization_40/moments/mean/reduction_indices", "shape": [2], "dtype": "int32"}, {"name": "StatefulPartitionedCall/CollaGANAffluentGenerator/instance_normalization_40/moments/variance/reduction_indices", "shape": [2], "dtype": "int32"}, {"name": "StatefulPartitionedCall/CollaGANAffluentGenerator/instance_normalization_40/batchnorm/add/y", "shape": [], "dtype": "float32"}, {"name": "StatefulPartitionedCall/CollaGANAffluentGenerator/instance_normalization_40/Reshape", "shape": [1, 1, 1, 64], "dtype": "float32"}, {"name": "StatefulPartitionedCall/CollaGANAffluentGenerator/conv2d_158/Conv2D/ReadVariableOp", "shape": [3, 3, 64, 64], "dtype": "float32"}, {"name": "StatefulPartitionedCall/CollaGANAffluentGenerator/conv2d_158/BiasAdd/ReadVariableOp", "shape": [64], "dtype": "float32"}, {"name": "StatefulPartitionedCall/CollaGANAffluentGenerator/instance_normalization_41/moments/mean/reduction_indices", "shape": [2], "dtype": "int32"}, {"name": "StatefulPartitionedCall/CollaGANAffluentGenerator/instance_normalization_41/moments/variance/reduction_indices", "shape": [2], "dtype": "int32"}, {"name": "StatefulPartitionedCall/CollaGANAffluentGenerator/instance_normalization_41/batchnorm/add/y", "shape": [], "dtype": "float32"}, {"name": "StatefulPartitionedCall/CollaGANAffluentGenerator/instance_normalization_41/Reshape", "shape": [1, 1, 1, 64], "dtype": "float32"}, {"name": "StatefulPartitionedCall/CollaGANAffluentGenerator/conv2d_159/Conv2D/ReadVariableOp", "shape": [1, 1, 64, 4], "dtype": "float32"}, {"name": "StatefulPartitionedCall/CollaGANAffluentGenerator/category_encoding/bincount/maxlength", "shape": [], "dtype": "int32"}, {"name": "StatefulPartitionedCall/CollaGANAffluentGenerator/category_encoding/bincount/minlength", "shape": [], "dtype": "int32"}, {"name": "StatefulPartitionedCall/CollaGANAffluentGenerator/category_encoding/bincount/Const", "shape": [1], "dtype": "int32"}, {"name": "StatefulPartitionedCall/CollaGANAffluentGenerator/category_encoding/bincount/Greater/y", "shape": [], "dtype": "int32"}, {"name": "StatefulPartitionedCall/CollaGANAffluentGenerator/category_encoding/bincount/Const_1", "shape": [2], "dtype": "int32"}, {"name": "StatefulPartitionedCall/CollaGANAffluentGenerator/category_encoding/bincount/add/y", "shape": [], "dtype": "int32"}, {"name": "StatefulPartitionedCall/CollaGANAffluentGenerator/category_encoding/bincount/Const_2", "shape": [0], "dtype": "float32"}]}]}